program(1.0)
[buildInfo = dict<tensor<string, []>, tensor<string, []>>({{"coremlc-component-MIL", "3510.2.1"}, {"coremlc-version", "3500.32.1"}, {"coremltools-component-torch", "2.9.1"}, {"coremltools-source-dialect", "TorchScript"}, {"coremltools-version", "9.0"}})]
{
    func main<ios15>(tensor<fp32, [1, 3, 192, 192]> input) {
            tensor<fp32, []> input__scaled___y_0 = const()[name = tensor<string, []>("input__scaled___y_0"), val = tensor<fp32, []>(0x1.010102p-7)];
            tensor<fp32, [1, 3, 192, 192]> input__scaled__ = mul(x = input, y = input__scaled___y_0)[name = tensor<string, []>("input__scaled__")];
            tensor<fp32, [1, 3, 1, 1]> input__biased___y_0 = const()[name = tensor<string, []>("input__biased___y_0"), val = tensor<fp32, [1, 3, 1, 1]>([[[[-0x1p+0]], [[-0x1p+0]], [[-0x1p+0]]]])];
            tensor<fp32, [1, 3, 192, 192]> input__biased__ = add(x = input__scaled__, y = input__biased___y_0)[name = tensor<string, []>("input__biased__")];
            tensor<string, []> input_1_pad_type_0 = const()[name = tensor<string, []>("input_1_pad_type_0"), val = tensor<string, []>("custom")];
            tensor<int32, [4]> input_1_pad_0 = const()[name = tensor<string, []>("input_1_pad_0"), val = tensor<int32, [4]>([1, 1, 1, 1])];
            tensor<int32, [2]> input_1_strides_0 = const()[name = tensor<string, []>("input_1_strides_0"), val = tensor<int32, [2]>([2, 2])];
            tensor<int32, [2]> input_1_dilations_0 = const()[name = tensor<string, []>("input_1_dilations_0"), val = tensor<int32, [2]>([1, 1])];
            tensor<int32, []> input_1_groups_0 = const()[name = tensor<string, []>("input_1_groups_0"), val = tensor<int32, []>(1)];
            tensor<string, []> input_to_fp16_dtype_0 = const()[name = tensor<string, []>("input_to_fp16_dtype_0"), val = tensor<string, []>("fp16")];
            tensor<fp16, [32, 3, 3, 3]> self_backbone_features1_0_0_weight_fused_bn_to_fp16 = const()[name = tensor<string, []>("self_backbone_features1_0_0_weight_fused_bn_to_fp16"), val = tensor<fp16, [32, 3, 3, 3]>(BLOBFILE(path = tensor<string, []>("@model_path/weights/weight.bin"), offset = tensor<uint64, []>(64)))];
            tensor<fp16, [32]> var_21_fused_bn_1_to_fp16 = const()[name = tensor<string, []>("op_21_fused_bn_1_to_fp16"), val = tensor<fp16, [32]>(BLOBFILE(path = tensor<string, []>("@model_path/weights/weight.bin"), offset = tensor<uint64, []>(1856)))];
            tensor<fp16, [1, 3, 192, 192]> input_to_fp16 = cast(dtype = input_to_fp16_dtype_0, x = input__biased__)[name = tensor<string, []>("cast_4")];
            tensor<fp16, [1, 32, 96, 96]> input_1_cast_fp16 = conv(bias = var_21_fused_bn_1_to_fp16, dilations = input_1_dilations_0, groups = input_1_groups_0, pad = input_1_pad_0, pad_type = input_1_pad_type_0, strides = input_1_strides_0, weight = self_backbone_features1_0_0_weight_fused_bn_to_fp16, x = input_to_fp16)[name = tensor<string, []>("input_1_cast_fp16")];
            tensor<fp16, [1, 32, 96, 96]> input_5_cast_fp16 = relu(x = input_1_cast_fp16)[name = tensor<string, []>("input_5_cast_fp16")];
            tensor<string, []> input_7_pad_type_0 = const()[name = tensor<string, []>("input_7_pad_type_0"), val = tensor<string, []>("custom")];
            tensor<int32, [4]> input_7_pad_0 = const()[name = tensor<string, []>("input_7_pad_0"), val = tensor<int32, [4]>([1, 1, 1, 1])];
            tensor<int32, []> input_7_groups_0 = const()[name = tensor<string, []>("input_7_groups_0"), val = tensor<int32, []>(32)];
            tensor<int32, [2]> input_7_strides_0 = const()[name = tensor<string, []>("input_7_strides_0"), val = tensor<int32, [2]>([1, 1])];
            tensor<int32, [2]> input_7_dilations_0 = const()[name = tensor<string, []>("input_7_dilations_0"), val = tensor<int32, [2]>([1, 1])];
            tensor<fp16, [32, 1, 3, 3]> self_backbone_features1_1_0_weight_fused_bn_to_fp16 = const()[name = tensor<string, []>("self_backbone_features1_1_0_weight_fused_bn_to_fp16"), val = tensor<fp16, [32, 1, 3, 3]>(BLOBFILE(path = tensor<string, []>("@model_path/weights/weight.bin"), offset = tensor<uint64, []>(1984)))];
            tensor<fp16, [32]> var_21_fused_bn_3_to_fp16 = const()[name = tensor<string, []>("op_21_fused_bn_3_to_fp16"), val = tensor<fp16, [32]>(BLOBFILE(path = tensor<string, []>("@model_path/weights/weight.bin"), offset = tensor<uint64, []>(2624)))];
            tensor<fp16, [1, 32, 96, 96]> input_7_cast_fp16 = conv(bias = var_21_fused_bn_3_to_fp16, dilations = input_7_dilations_0, groups = input_7_groups_0, pad = input_7_pad_0, pad_type = input_7_pad_type_0, strides = input_7_strides_0, weight = self_backbone_features1_1_0_weight_fused_bn_to_fp16, x = input_5_cast_fp16)[name = tensor<string, []>("input_7_cast_fp16")];
            tensor<fp16, [1, 32, 96, 96]> input_11_cast_fp16 = relu(x = input_7_cast_fp16)[name = tensor<string, []>("input_11_cast_fp16")];
            tensor<string, []> input_13_pad_type_0 = const()[name = tensor<string, []>("input_13_pad_type_0"), val = tensor<string, []>("valid")];
            tensor<int32, [2]> input_13_strides_0 = const()[name = tensor<string, []>("input_13_strides_0"), val = tensor<int32, [2]>([1, 1])];
            tensor<int32, [4]> input_13_pad_0 = const()[name = tensor<string, []>("input_13_pad_0"), val = tensor<int32, [4]>([0, 0, 0, 0])];
            tensor<int32, [2]> input_13_dilations_0 = const()[name = tensor<string, []>("input_13_dilations_0"), val = tensor<int32, [2]>([1, 1])];
            tensor<int32, []> input_13_groups_0 = const()[name = tensor<string, []>("input_13_groups_0"), val = tensor<int32, []>(1)];
            tensor<fp16, [16, 32, 1, 1]> self_backbone_features1_1_3_weight_fused_bn_to_fp16 = const()[name = tensor<string, []>("self_backbone_features1_1_3_weight_fused_bn_to_fp16"), val = tensor<fp16, [16, 32, 1, 1]>(BLOBFILE(path = tensor<string, []>("@model_path/weights/weight.bin"), offset = tensor<uint64, []>(2752)))];
            tensor<fp16, [16]> var_21_fused_bn_5_to_fp16 = const()[name = tensor<string, []>("op_21_fused_bn_5_to_fp16"), val = tensor<fp16, [16]>(BLOBFILE(path = tensor<string, []>("@model_path/weights/weight.bin"), offset = tensor<uint64, []>(3840)))];
            tensor<fp16, [1, 16, 96, 96]> input_13_cast_fp16 = conv(bias = var_21_fused_bn_5_to_fp16, dilations = input_13_dilations_0, groups = input_13_groups_0, pad = input_13_pad_0, pad_type = input_13_pad_type_0, strides = input_13_strides_0, weight = self_backbone_features1_1_3_weight_fused_bn_to_fp16, x = input_11_cast_fp16)[name = tensor<string, []>("input_13_cast_fp16")];
            tensor<string, []> input_17_pad_type_0 = const()[name = tensor<string, []>("input_17_pad_type_0"), val = tensor<string, []>("valid")];
            tensor<int32, [2]> input_17_strides_0 = const()[name = tensor<string, []>("input_17_strides_0"), val = tensor<int32, [2]>([1, 1])];
            tensor<int32, [4]> input_17_pad_0 = const()[name = tensor<string, []>("input_17_pad_0"), val = tensor<int32, [4]>([0, 0, 0, 0])];
            tensor<int32, [2]> input_17_dilations_0 = const()[name = tensor<string, []>("input_17_dilations_0"), val = tensor<int32, [2]>([1, 1])];
            tensor<int32, []> input_17_groups_0 = const()[name = tensor<string, []>("input_17_groups_0"), val = tensor<int32, []>(1)];
            tensor<fp16, [96, 16, 1, 1]> self_backbone_features1_2_conv1_0_weight_fused_bn_to_fp16 = const()[name = tensor<string, []>("self_backbone_features1_2_conv1_0_weight_fused_bn_to_fp16"), val = tensor<fp16, [96, 16, 1, 1]>(BLOBFILE(path = tensor<string, []>("@model_path/weights/weight.bin"), offset = tensor<uint64, []>(3968)))];
            tensor<fp16, [96]> var_21_fused_bn_7_to_fp16 = const()[name = tensor<string, []>("op_21_fused_bn_7_to_fp16"), val = tensor<fp16, [96]>(BLOBFILE(path = tensor<string, []>("@model_path/weights/weight.bin"), offset = tensor<uint64, []>(7104)))];
            tensor<fp16, [1, 96, 96, 96]> input_17_cast_fp16 = conv(bias = var_21_fused_bn_7_to_fp16, dilations = input_17_dilations_0, groups = input_17_groups_0, pad = input_17_pad_0, pad_type = input_17_pad_type_0, strides = input_17_strides_0, weight = self_backbone_features1_2_conv1_0_weight_fused_bn_to_fp16, x = input_13_cast_fp16)[name = tensor<string, []>("input_17_cast_fp16")];
            tensor<fp16, [1, 96, 96, 96]> input_21_cast_fp16 = relu(x = input_17_cast_fp16)[name = tensor<string, []>("input_21_cast_fp16")];
            tensor<string, []> input_23_pad_type_0 = const()[name = tensor<string, []>("input_23_pad_type_0"), val = tensor<string, []>("custom")];
            tensor<int32, [4]> input_23_pad_0 = const()[name = tensor<string, []>("input_23_pad_0"), val = tensor<int32, [4]>([1, 1, 1, 1])];
            tensor<int32, [2]> input_23_strides_0 = const()[name = tensor<string, []>("input_23_strides_0"), val = tensor<int32, [2]>([2, 2])];
            tensor<int32, []> input_23_groups_0 = const()[name = tensor<string, []>("input_23_groups_0"), val = tensor<int32, []>(96)];
            tensor<int32, [2]> input_23_dilations_0 = const()[name = tensor<string, []>("input_23_dilations_0"), val = tensor<int32, [2]>([1, 1])];
            tensor<fp16, [96, 1, 3, 3]> self_backbone_features1_2_conv1_3_weight_fused_bn_to_fp16 = const()[name = tensor<string, []>("self_backbone_features1_2_conv1_3_weight_fused_bn_to_fp16"), val = tensor<fp16, [96, 1, 3, 3]>(BLOBFILE(path = tensor<string, []>("@model_path/weights/weight.bin"), offset = tensor<uint64, []>(7360)))];
            tensor<fp16, [96]> self_backbone_features1_2_conv1_3_bias_fused_bn_to_fp16 = const()[name = tensor<string, []>("self_backbone_features1_2_conv1_3_bias_fused_bn_to_fp16"), val = tensor<fp16, [96]>(BLOBFILE(path = tensor<string, []>("@model_path/weights/weight.bin"), offset = tensor<uint64, []>(9152)))];
            tensor<fp16, [1, 96, 48, 48]> input_23_cast_fp16 = conv(bias = self_backbone_features1_2_conv1_3_bias_fused_bn_to_fp16, dilations = input_23_dilations_0, groups = input_23_groups_0, pad = input_23_pad_0, pad_type = input_23_pad_type_0, strides = input_23_strides_0, weight = self_backbone_features1_2_conv1_3_weight_fused_bn_to_fp16, x = input_21_cast_fp16)[name = tensor<string, []>("input_23_cast_fp16")];
            tensor<fp16, [1, 96, 48, 48]> input_27_cast_fp16 = relu(x = input_23_cast_fp16)[name = tensor<string, []>("input_27_cast_fp16")];
            tensor<string, []> input_29_pad_type_0 = const()[name = tensor<string, []>("input_29_pad_type_0"), val = tensor<string, []>("valid")];
            tensor<int32, [2]> input_29_strides_0 = const()[name = tensor<string, []>("input_29_strides_0"), val = tensor<int32, [2]>([1, 1])];
            tensor<int32, [4]> input_29_pad_0 = const()[name = tensor<string, []>("input_29_pad_0"), val = tensor<int32, [4]>([0, 0, 0, 0])];
            tensor<int32, [2]> input_29_dilations_0 = const()[name = tensor<string, []>("input_29_dilations_0"), val = tensor<int32, [2]>([1, 1])];
            tensor<int32, []> input_29_groups_0 = const()[name = tensor<string, []>("input_29_groups_0"), val = tensor<int32, []>(1)];
            tensor<fp16, [24, 96, 1, 1]> self_backbone_features1_2_conv1_6_weight_fused_bn_to_fp16 = const()[name = tensor<string, []>("self_backbone_features1_2_conv1_6_weight_fused_bn_to_fp16"), val = tensor<fp16, [24, 96, 1, 1]>(BLOBFILE(path = tensor<string, []>("@model_path/weights/weight.bin"), offset = tensor<uint64, []>(9408)))];
            tensor<fp16, [24]> var_21_fused_bn_9_to_fp16 = const()[name = tensor<string, []>("op_21_fused_bn_9_to_fp16"), val = tensor<fp16, [24]>(BLOBFILE(path = tensor<string, []>("@model_path/weights/weight.bin"), offset = tensor<uint64, []>(14080)))];
            tensor<fp16, [1, 24, 48, 48]> input_29_cast_fp16 = conv(bias = var_21_fused_bn_9_to_fp16, dilations = input_29_dilations_0, groups = input_29_groups_0, pad = input_29_pad_0, pad_type = input_29_pad_type_0, strides = input_29_strides_0, weight = self_backbone_features1_2_conv1_6_weight_fused_bn_to_fp16, x = input_27_cast_fp16)[name = tensor<string, []>("input_29_cast_fp16")];
            tensor<string, []> input_33_pad_type_0 = const()[name = tensor<string, []>("input_33_pad_type_0"), val = tensor<string, []>("valid")];
            tensor<int32, [2]> input_33_strides_0 = const()[name = tensor<string, []>("input_33_strides_0"), val = tensor<int32, [2]>([1, 1])];
            tensor<int32, [4]> input_33_pad_0 = const()[name = tensor<string, []>("input_33_pad_0"), val = tensor<int32, [4]>([0, 0, 0, 0])];
            tensor<int32, [2]> input_33_dilations_0 = const()[name = tensor<string, []>("input_33_dilations_0"), val = tensor<int32, [2]>([1, 1])];
            tensor<int32, []> input_33_groups_0 = const()[name = tensor<string, []>("input_33_groups_0"), val = tensor<int32, []>(1)];
            tensor<fp16, [96, 24, 1, 1]> self_backbone_features1_2_conv2_0_0_weight_fused_bn_to_fp16 = const()[name = tensor<string, []>("self_backbone_features1_2_conv2_0_0_weight_fused_bn_to_fp16"), val = tensor<fp16, [96, 24, 1, 1]>(BLOBFILE(path = tensor<string, []>("@model_path/weights/weight.bin"), offset = tensor<uint64, []>(14208)))];
            tensor<fp16, [96]> var_21_fused_bn_11_to_fp16 = const()[name = tensor<string, []>("op_21_fused_bn_11_to_fp16"), val = tensor<fp16, [96]>(BLOBFILE(path = tensor<string, []>("@model_path/weights/weight.bin"), offset = tensor<uint64, []>(18880)))];
            tensor<fp16, [1, 96, 48, 48]> input_33_cast_fp16 = conv(bias = var_21_fused_bn_11_to_fp16, dilations = input_33_dilations_0, groups = input_33_groups_0, pad = input_33_pad_0, pad_type = input_33_pad_type_0, strides = input_33_strides_0, weight = self_backbone_features1_2_conv2_0_0_weight_fused_bn_to_fp16, x = input_29_cast_fp16)[name = tensor<string, []>("input_33_cast_fp16")];
            tensor<fp16, [1, 96, 48, 48]> input_37_cast_fp16 = relu(x = input_33_cast_fp16)[name = tensor<string, []>("input_37_cast_fp16")];
            tensor<string, []> input_39_pad_type_0 = const()[name = tensor<string, []>("input_39_pad_type_0"), val = tensor<string, []>("custom")];
            tensor<int32, [4]> input_39_pad_0 = const()[name = tensor<string, []>("input_39_pad_0"), val = tensor<int32, [4]>([1, 1, 1, 1])];
            tensor<int32, []> input_39_groups_0 = const()[name = tensor<string, []>("input_39_groups_0"), val = tensor<int32, []>(96)];
            tensor<int32, [2]> input_39_strides_0 = const()[name = tensor<string, []>("input_39_strides_0"), val = tensor<int32, [2]>([1, 1])];
            tensor<int32, [2]> input_39_dilations_0 = const()[name = tensor<string, []>("input_39_dilations_0"), val = tensor<int32, [2]>([1, 1])];
            tensor<fp16, [96, 1, 3, 3]> self_backbone_features1_2_conv2_0_3_weight_fused_bn_to_fp16 = const()[name = tensor<string, []>("self_backbone_features1_2_conv2_0_3_weight_fused_bn_to_fp16"), val = tensor<fp16, [96, 1, 3, 3]>(BLOBFILE(path = tensor<string, []>("@model_path/weights/weight.bin"), offset = tensor<uint64, []>(19136)))];
            tensor<fp16, [96]> var_21_fused_bn_13_to_fp16 = const()[name = tensor<string, []>("op_21_fused_bn_13_to_fp16"), val = tensor<fp16, [96]>(BLOBFILE(path = tensor<string, []>("@model_path/weights/weight.bin"), offset = tensor<uint64, []>(20928)))];
            tensor<fp16, [1, 96, 48, 48]> input_39_cast_fp16 = conv(bias = var_21_fused_bn_13_to_fp16, dilations = input_39_dilations_0, groups = input_39_groups_0, pad = input_39_pad_0, pad_type = input_39_pad_type_0, strides = input_39_strides_0, weight = self_backbone_features1_2_conv2_0_3_weight_fused_bn_to_fp16, x = input_37_cast_fp16)[name = tensor<string, []>("input_39_cast_fp16")];
            tensor<fp16, [1, 96, 48, 48]> input_43_cast_fp16 = relu(x = input_39_cast_fp16)[name = tensor<string, []>("input_43_cast_fp16")];
            tensor<string, []> input_45_pad_type_0 = const()[name = tensor<string, []>("input_45_pad_type_0"), val = tensor<string, []>("valid")];
            tensor<int32, [2]> input_45_strides_0 = const()[name = tensor<string, []>("input_45_strides_0"), val = tensor<int32, [2]>([1, 1])];
            tensor<int32, [4]> input_45_pad_0 = const()[name = tensor<string, []>("input_45_pad_0"), val = tensor<int32, [4]>([0, 0, 0, 0])];
            tensor<int32, [2]> input_45_dilations_0 = const()[name = tensor<string, []>("input_45_dilations_0"), val = tensor<int32, [2]>([1, 1])];
            tensor<int32, []> input_45_groups_0 = const()[name = tensor<string, []>("input_45_groups_0"), val = tensor<int32, []>(1)];
            tensor<fp16, [24, 96, 1, 1]> self_backbone_features1_2_conv2_0_6_weight_fused_bn_to_fp16 = const()[name = tensor<string, []>("self_backbone_features1_2_conv2_0_6_weight_fused_bn_to_fp16"), val = tensor<fp16, [24, 96, 1, 1]>(BLOBFILE(path = tensor<string, []>("@model_path/weights/weight.bin"), offset = tensor<uint64, []>(21184)))];
            tensor<fp16, [24]> var_21_fused_bn_15_to_fp16 = const()[name = tensor<string, []>("op_21_fused_bn_15_to_fp16"), val = tensor<fp16, [24]>(BLOBFILE(path = tensor<string, []>("@model_path/weights/weight.bin"), offset = tensor<uint64, []>(25856)))];
            tensor<fp16, [1, 24, 48, 48]> input_45_cast_fp16 = conv(bias = var_21_fused_bn_15_to_fp16, dilations = input_45_dilations_0, groups = input_45_groups_0, pad = input_45_pad_0, pad_type = input_45_pad_type_0, strides = input_45_strides_0, weight = self_backbone_features1_2_conv2_0_6_weight_fused_bn_to_fp16, x = input_43_cast_fp16)[name = tensor<string, []>("input_45_cast_fp16")];
            tensor<fp16, [1, 24, 48, 48]> input_47_cast_fp16 = add(x = input_29_cast_fp16, y = input_45_cast_fp16)[name = tensor<string, []>("input_47_cast_fp16")];
            tensor<string, []> input_49_pad_type_0 = const()[name = tensor<string, []>("input_49_pad_type_0"), val = tensor<string, []>("valid")];
            tensor<int32, [2]> input_49_strides_0 = const()[name = tensor<string, []>("input_49_strides_0"), val = tensor<int32, [2]>([1, 1])];
            tensor<int32, [4]> input_49_pad_0 = const()[name = tensor<string, []>("input_49_pad_0"), val = tensor<int32, [4]>([0, 0, 0, 0])];
            tensor<int32, [2]> input_49_dilations_0 = const()[name = tensor<string, []>("input_49_dilations_0"), val = tensor<int32, [2]>([1, 1])];
            tensor<int32, []> input_49_groups_0 = const()[name = tensor<string, []>("input_49_groups_0"), val = tensor<int32, []>(1)];
            tensor<fp16, [144, 24, 1, 1]> self_backbone_features2_conv1_0_weight_fused_bn_to_fp16 = const()[name = tensor<string, []>("self_backbone_features2_conv1_0_weight_fused_bn_to_fp16"), val = tensor<fp16, [144, 24, 1, 1]>(BLOBFILE(path = tensor<string, []>("@model_path/weights/weight.bin"), offset = tensor<uint64, []>(25984)))];
            tensor<fp16, [144]> var_21_fused_bn_17_to_fp16 = const()[name = tensor<string, []>("op_21_fused_bn_17_to_fp16"), val = tensor<fp16, [144]>(BLOBFILE(path = tensor<string, []>("@model_path/weights/weight.bin"), offset = tensor<uint64, []>(32960)))];
            tensor<fp16, [1, 144, 48, 48]> input_49_cast_fp16 = conv(bias = var_21_fused_bn_17_to_fp16, dilations = input_49_dilations_0, groups = input_49_groups_0, pad = input_49_pad_0, pad_type = input_49_pad_type_0, strides = input_49_strides_0, weight = self_backbone_features2_conv1_0_weight_fused_bn_to_fp16, x = input_47_cast_fp16)[name = tensor<string, []>("input_49_cast_fp16")];
            tensor<fp16, [1, 144, 48, 48]> input_53_cast_fp16 = relu(x = input_49_cast_fp16)[name = tensor<string, []>("input_53_cast_fp16")];
            tensor<string, []> input_55_pad_type_0 = const()[name = tensor<string, []>("input_55_pad_type_0"), val = tensor<string, []>("custom")];
            tensor<int32, [4]> input_55_pad_0 = const()[name = tensor<string, []>("input_55_pad_0"), val = tensor<int32, [4]>([1, 1, 1, 1])];
            tensor<int32, [2]> input_55_strides_0 = const()[name = tensor<string, []>("input_55_strides_0"), val = tensor<int32, [2]>([2, 2])];
            tensor<int32, []> input_55_groups_0 = const()[name = tensor<string, []>("input_55_groups_0"), val = tensor<int32, []>(144)];
            tensor<int32, [2]> input_55_dilations_0 = const()[name = tensor<string, []>("input_55_dilations_0"), val = tensor<int32, [2]>([1, 1])];
            tensor<fp16, [144, 1, 3, 3]> self_backbone_features2_conv1_3_weight_fused_bn_to_fp16 = const()[name = tensor<string, []>("self_backbone_features2_conv1_3_weight_fused_bn_to_fp16"), val = tensor<fp16, [144, 1, 3, 3]>(BLOBFILE(path = tensor<string, []>("@model_path/weights/weight.bin"), offset = tensor<uint64, []>(33344)))];
            tensor<fp16, [144]> self_backbone_features2_conv1_3_bias_fused_bn_to_fp16 = const()[name = tensor<string, []>("self_backbone_features2_conv1_3_bias_fused_bn_to_fp16"), val = tensor<fp16, [144]>(BLOBFILE(path = tensor<string, []>("@model_path/weights/weight.bin"), offset = tensor<uint64, []>(36032)))];
            tensor<fp16, [1, 144, 24, 24]> input_55_cast_fp16 = conv(bias = self_backbone_features2_conv1_3_bias_fused_bn_to_fp16, dilations = input_55_dilations_0, groups = input_55_groups_0, pad = input_55_pad_0, pad_type = input_55_pad_type_0, strides = input_55_strides_0, weight = self_backbone_features2_conv1_3_weight_fused_bn_to_fp16, x = input_53_cast_fp16)[name = tensor<string, []>("input_55_cast_fp16")];
            tensor<fp16, [1, 144, 24, 24]> input_59_cast_fp16 = relu(x = input_55_cast_fp16)[name = tensor<string, []>("input_59_cast_fp16")];
            tensor<string, []> input_61_pad_type_0 = const()[name = tensor<string, []>("input_61_pad_type_0"), val = tensor<string, []>("valid")];
            tensor<int32, [2]> input_61_strides_0 = const()[name = tensor<string, []>("input_61_strides_0"), val = tensor<int32, [2]>([1, 1])];
            tensor<int32, [4]> input_61_pad_0 = const()[name = tensor<string, []>("input_61_pad_0"), val = tensor<int32, [4]>([0, 0, 0, 0])];
            tensor<int32, [2]> input_61_dilations_0 = const()[name = tensor<string, []>("input_61_dilations_0"), val = tensor<int32, [2]>([1, 1])];
            tensor<int32, []> input_61_groups_0 = const()[name = tensor<string, []>("input_61_groups_0"), val = tensor<int32, []>(1)];
            tensor<fp16, [32, 144, 1, 1]> self_backbone_features2_conv1_6_weight_fused_bn_to_fp16 = const()[name = tensor<string, []>("self_backbone_features2_conv1_6_weight_fused_bn_to_fp16"), val = tensor<fp16, [32, 144, 1, 1]>(BLOBFILE(path = tensor<string, []>("@model_path/weights/weight.bin"), offset = tensor<uint64, []>(36416)))];
            tensor<fp16, [32]> var_21_fused_bn_19_to_fp16 = const()[name = tensor<string, []>("op_21_fused_bn_19_to_fp16"), val = tensor<fp16, [32]>(BLOBFILE(path = tensor<string, []>("@model_path/weights/weight.bin"), offset = tensor<uint64, []>(45696)))];
            tensor<fp16, [1, 32, 24, 24]> input_61_cast_fp16 = conv(bias = var_21_fused_bn_19_to_fp16, dilations = input_61_dilations_0, groups = input_61_groups_0, pad = input_61_pad_0, pad_type = input_61_pad_type_0, strides = input_61_strides_0, weight = self_backbone_features2_conv1_6_weight_fused_bn_to_fp16, x = input_59_cast_fp16)[name = tensor<string, []>("input_61_cast_fp16")];
            tensor<string, []> input_65_pad_type_0 = const()[name = tensor<string, []>("input_65_pad_type_0"), val = tensor<string, []>("valid")];
            tensor<int32, [2]> input_65_strides_0 = const()[name = tensor<string, []>("input_65_strides_0"), val = tensor<int32, [2]>([1, 1])];
            tensor<int32, [4]> input_65_pad_0 = const()[name = tensor<string, []>("input_65_pad_0"), val = tensor<int32, [4]>([0, 0, 0, 0])];
            tensor<int32, [2]> input_65_dilations_0 = const()[name = tensor<string, []>("input_65_dilations_0"), val = tensor<int32, [2]>([1, 1])];
            tensor<int32, []> input_65_groups_0 = const()[name = tensor<string, []>("input_65_groups_0"), val = tensor<int32, []>(1)];
            tensor<fp16, [144, 32, 1, 1]> self_backbone_features2_conv2_0_0_weight_fused_bn_to_fp16 = const()[name = tensor<string, []>("self_backbone_features2_conv2_0_0_weight_fused_bn_to_fp16"), val = tensor<fp16, [144, 32, 1, 1]>(BLOBFILE(path = tensor<string, []>("@model_path/weights/weight.bin"), offset = tensor<uint64, []>(45824)))];
            tensor<fp16, [144]> var_21_fused_bn_21_to_fp16 = const()[name = tensor<string, []>("op_21_fused_bn_21_to_fp16"), val = tensor<fp16, [144]>(BLOBFILE(path = tensor<string, []>("@model_path/weights/weight.bin"), offset = tensor<uint64, []>(55104)))];
            tensor<fp16, [1, 144, 24, 24]> input_65_cast_fp16 = conv(bias = var_21_fused_bn_21_to_fp16, dilations = input_65_dilations_0, groups = input_65_groups_0, pad = input_65_pad_0, pad_type = input_65_pad_type_0, strides = input_65_strides_0, weight = self_backbone_features2_conv2_0_0_weight_fused_bn_to_fp16, x = input_61_cast_fp16)[name = tensor<string, []>("input_65_cast_fp16")];
            tensor<fp16, [1, 144, 24, 24]> input_69_cast_fp16 = relu(x = input_65_cast_fp16)[name = tensor<string, []>("input_69_cast_fp16")];
            tensor<string, []> input_71_pad_type_0 = const()[name = tensor<string, []>("input_71_pad_type_0"), val = tensor<string, []>("custom")];
            tensor<int32, [4]> input_71_pad_0 = const()[name = tensor<string, []>("input_71_pad_0"), val = tensor<int32, [4]>([1, 1, 1, 1])];
            tensor<int32, []> input_71_groups_0 = const()[name = tensor<string, []>("input_71_groups_0"), val = tensor<int32, []>(144)];
            tensor<int32, [2]> input_71_strides_0 = const()[name = tensor<string, []>("input_71_strides_0"), val = tensor<int32, [2]>([1, 1])];
            tensor<int32, [2]> input_71_dilations_0 = const()[name = tensor<string, []>("input_71_dilations_0"), val = tensor<int32, [2]>([1, 1])];
            tensor<fp16, [144, 1, 3, 3]> self_backbone_features2_conv2_0_3_weight_fused_bn_to_fp16 = const()[name = tensor<string, []>("self_backbone_features2_conv2_0_3_weight_fused_bn_to_fp16"), val = tensor<fp16, [144, 1, 3, 3]>(BLOBFILE(path = tensor<string, []>("@model_path/weights/weight.bin"), offset = tensor<uint64, []>(55488)))];
            tensor<fp16, [144]> var_21_fused_bn_23_to_fp16 = const()[name = tensor<string, []>("op_21_fused_bn_23_to_fp16"), val = tensor<fp16, [144]>(BLOBFILE(path = tensor<string, []>("@model_path/weights/weight.bin"), offset = tensor<uint64, []>(58176)))];
            tensor<fp16, [1, 144, 24, 24]> input_71_cast_fp16 = conv(bias = var_21_fused_bn_23_to_fp16, dilations = input_71_dilations_0, groups = input_71_groups_0, pad = input_71_pad_0, pad_type = input_71_pad_type_0, strides = input_71_strides_0, weight = self_backbone_features2_conv2_0_3_weight_fused_bn_to_fp16, x = input_69_cast_fp16)[name = tensor<string, []>("input_71_cast_fp16")];
            tensor<fp16, [1, 144, 24, 24]> input_75_cast_fp16 = relu(x = input_71_cast_fp16)[name = tensor<string, []>("input_75_cast_fp16")];
            tensor<string, []> input_77_pad_type_0 = const()[name = tensor<string, []>("input_77_pad_type_0"), val = tensor<string, []>("valid")];
            tensor<int32, [2]> input_77_strides_0 = const()[name = tensor<string, []>("input_77_strides_0"), val = tensor<int32, [2]>([1, 1])];
            tensor<int32, [4]> input_77_pad_0 = const()[name = tensor<string, []>("input_77_pad_0"), val = tensor<int32, [4]>([0, 0, 0, 0])];
            tensor<int32, [2]> input_77_dilations_0 = const()[name = tensor<string, []>("input_77_dilations_0"), val = tensor<int32, [2]>([1, 1])];
            tensor<int32, []> input_77_groups_0 = const()[name = tensor<string, []>("input_77_groups_0"), val = tensor<int32, []>(1)];
            tensor<fp16, [32, 144, 1, 1]> self_backbone_features2_conv2_0_6_weight_fused_bn_to_fp16 = const()[name = tensor<string, []>("self_backbone_features2_conv2_0_6_weight_fused_bn_to_fp16"), val = tensor<fp16, [32, 144, 1, 1]>(BLOBFILE(path = tensor<string, []>("@model_path/weights/weight.bin"), offset = tensor<uint64, []>(58560)))];
            tensor<fp16, [32]> var_21_fused_bn_25_to_fp16 = const()[name = tensor<string, []>("op_21_fused_bn_25_to_fp16"), val = tensor<fp16, [32]>(BLOBFILE(path = tensor<string, []>("@model_path/weights/weight.bin"), offset = tensor<uint64, []>(67840)))];
            tensor<fp16, [1, 32, 24, 24]> input_77_cast_fp16 = conv(bias = var_21_fused_bn_25_to_fp16, dilations = input_77_dilations_0, groups = input_77_groups_0, pad = input_77_pad_0, pad_type = input_77_pad_type_0, strides = input_77_strides_0, weight = self_backbone_features2_conv2_0_6_weight_fused_bn_to_fp16, x = input_75_cast_fp16)[name = tensor<string, []>("input_77_cast_fp16")];
            tensor<fp16, [1, 32, 24, 24]> input_79_cast_fp16 = add(x = input_61_cast_fp16, y = input_77_cast_fp16)[name = tensor<string, []>("input_79_cast_fp16")];
            tensor<string, []> input_81_pad_type_0 = const()[name = tensor<string, []>("input_81_pad_type_0"), val = tensor<string, []>("valid")];
            tensor<int32, [2]> input_81_strides_0 = const()[name = tensor<string, []>("input_81_strides_0"), val = tensor<int32, [2]>([1, 1])];
            tensor<int32, [4]> input_81_pad_0 = const()[name = tensor<string, []>("input_81_pad_0"), val = tensor<int32, [4]>([0, 0, 0, 0])];
            tensor<int32, [2]> input_81_dilations_0 = const()[name = tensor<string, []>("input_81_dilations_0"), val = tensor<int32, [2]>([1, 1])];
            tensor<int32, []> input_81_groups_0 = const()[name = tensor<string, []>("input_81_groups_0"), val = tensor<int32, []>(1)];
            tensor<fp16, [144, 32, 1, 1]> self_backbone_features2_conv2_1_0_weight_fused_bn_to_fp16 = const()[name = tensor<string, []>("self_backbone_features2_conv2_1_0_weight_fused_bn_to_fp16"), val = tensor<fp16, [144, 32, 1, 1]>(BLOBFILE(path = tensor<string, []>("@model_path/weights/weight.bin"), offset = tensor<uint64, []>(67968)))];
            tensor<fp16, [144]> var_21_fused_bn_27_to_fp16 = const()[name = tensor<string, []>("op_21_fused_bn_27_to_fp16"), val = tensor<fp16, [144]>(BLOBFILE(path = tensor<string, []>("@model_path/weights/weight.bin"), offset = tensor<uint64, []>(77248)))];
            tensor<fp16, [1, 144, 24, 24]> input_81_cast_fp16 = conv(bias = var_21_fused_bn_27_to_fp16, dilations = input_81_dilations_0, groups = input_81_groups_0, pad = input_81_pad_0, pad_type = input_81_pad_type_0, strides = input_81_strides_0, weight = self_backbone_features2_conv2_1_0_weight_fused_bn_to_fp16, x = input_79_cast_fp16)[name = tensor<string, []>("input_81_cast_fp16")];
            tensor<fp16, [1, 144, 24, 24]> input_85_cast_fp16 = relu(x = input_81_cast_fp16)[name = tensor<string, []>("input_85_cast_fp16")];
            tensor<string, []> input_87_pad_type_0 = const()[name = tensor<string, []>("input_87_pad_type_0"), val = tensor<string, []>("custom")];
            tensor<int32, [4]> input_87_pad_0 = const()[name = tensor<string, []>("input_87_pad_0"), val = tensor<int32, [4]>([1, 1, 1, 1])];
            tensor<int32, []> input_87_groups_0 = const()[name = tensor<string, []>("input_87_groups_0"), val = tensor<int32, []>(144)];
            tensor<int32, [2]> input_87_strides_0 = const()[name = tensor<string, []>("input_87_strides_0"), val = tensor<int32, [2]>([1, 1])];
            tensor<int32, [2]> input_87_dilations_0 = const()[name = tensor<string, []>("input_87_dilations_0"), val = tensor<int32, [2]>([1, 1])];
            tensor<fp16, [144, 1, 3, 3]> self_backbone_features2_conv2_1_3_weight_fused_bn_to_fp16 = const()[name = tensor<string, []>("self_backbone_features2_conv2_1_3_weight_fused_bn_to_fp16"), val = tensor<fp16, [144, 1, 3, 3]>(BLOBFILE(path = tensor<string, []>("@model_path/weights/weight.bin"), offset = tensor<uint64, []>(77632)))];
            tensor<fp16, [144]> var_21_fused_bn_29_to_fp16 = const()[name = tensor<string, []>("op_21_fused_bn_29_to_fp16"), val = tensor<fp16, [144]>(BLOBFILE(path = tensor<string, []>("@model_path/weights/weight.bin"), offset = tensor<uint64, []>(80320)))];
            tensor<fp16, [1, 144, 24, 24]> input_87_cast_fp16 = conv(bias = var_21_fused_bn_29_to_fp16, dilations = input_87_dilations_0, groups = input_87_groups_0, pad = input_87_pad_0, pad_type = input_87_pad_type_0, strides = input_87_strides_0, weight = self_backbone_features2_conv2_1_3_weight_fused_bn_to_fp16, x = input_85_cast_fp16)[name = tensor<string, []>("input_87_cast_fp16")];
            tensor<fp16, [1, 144, 24, 24]> input_91_cast_fp16 = relu(x = input_87_cast_fp16)[name = tensor<string, []>("input_91_cast_fp16")];
            tensor<string, []> input_93_pad_type_0 = const()[name = tensor<string, []>("input_93_pad_type_0"), val = tensor<string, []>("valid")];
            tensor<int32, [2]> input_93_strides_0 = const()[name = tensor<string, []>("input_93_strides_0"), val = tensor<int32, [2]>([1, 1])];
            tensor<int32, [4]> input_93_pad_0 = const()[name = tensor<string, []>("input_93_pad_0"), val = tensor<int32, [4]>([0, 0, 0, 0])];
            tensor<int32, [2]> input_93_dilations_0 = const()[name = tensor<string, []>("input_93_dilations_0"), val = tensor<int32, [2]>([1, 1])];
            tensor<int32, []> input_93_groups_0 = const()[name = tensor<string, []>("input_93_groups_0"), val = tensor<int32, []>(1)];
            tensor<fp16, [32, 144, 1, 1]> self_backbone_features2_conv2_1_6_weight_fused_bn_to_fp16 = const()[name = tensor<string, []>("self_backbone_features2_conv2_1_6_weight_fused_bn_to_fp16"), val = tensor<fp16, [32, 144, 1, 1]>(BLOBFILE(path = tensor<string, []>("@model_path/weights/weight.bin"), offset = tensor<uint64, []>(80704)))];
            tensor<fp16, [32]> var_21_fused_bn_31_to_fp16 = const()[name = tensor<string, []>("op_21_fused_bn_31_to_fp16"), val = tensor<fp16, [32]>(BLOBFILE(path = tensor<string, []>("@model_path/weights/weight.bin"), offset = tensor<uint64, []>(89984)))];
            tensor<fp16, [1, 32, 24, 24]> input_93_cast_fp16 = conv(bias = var_21_fused_bn_31_to_fp16, dilations = input_93_dilations_0, groups = input_93_groups_0, pad = input_93_pad_0, pad_type = input_93_pad_type_0, strides = input_93_strides_0, weight = self_backbone_features2_conv2_1_6_weight_fused_bn_to_fp16, x = input_91_cast_fp16)[name = tensor<string, []>("input_93_cast_fp16")];
            tensor<fp16, [1, 32, 24, 24]> input_95_cast_fp16 = add(x = input_79_cast_fp16, y = input_93_cast_fp16)[name = tensor<string, []>("input_95_cast_fp16")];
            tensor<string, []> input_97_pad_type_0 = const()[name = tensor<string, []>("input_97_pad_type_0"), val = tensor<string, []>("valid")];
            tensor<int32, [2]> input_97_strides_0 = const()[name = tensor<string, []>("input_97_strides_0"), val = tensor<int32, [2]>([1, 1])];
            tensor<int32, [4]> input_97_pad_0 = const()[name = tensor<string, []>("input_97_pad_0"), val = tensor<int32, [4]>([0, 0, 0, 0])];
            tensor<int32, [2]> input_97_dilations_0 = const()[name = tensor<string, []>("input_97_dilations_0"), val = tensor<int32, [2]>([1, 1])];
            tensor<int32, []> input_97_groups_0 = const()[name = tensor<string, []>("input_97_groups_0"), val = tensor<int32, []>(1)];
            tensor<fp16, [192, 32, 1, 1]> self_backbone_features3_conv1_0_weight_fused_bn_to_fp16 = const()[name = tensor<string, []>("self_backbone_features3_conv1_0_weight_fused_bn_to_fp16"), val = tensor<fp16, [192, 32, 1, 1]>(BLOBFILE(path = tensor<string, []>("@model_path/weights/weight.bin"), offset = tensor<uint64, []>(90112)))];
            tensor<fp16, [192]> var_21_fused_bn_33_to_fp16 = const()[name = tensor<string, []>("op_21_fused_bn_33_to_fp16"), val = tensor<fp16, [192]>(BLOBFILE(path = tensor<string, []>("@model_path/weights/weight.bin"), offset = tensor<uint64, []>(102464)))];
            tensor<fp16, [1, 192, 24, 24]> input_97_cast_fp16 = conv(bias = var_21_fused_bn_33_to_fp16, dilations = input_97_dilations_0, groups = input_97_groups_0, pad = input_97_pad_0, pad_type = input_97_pad_type_0, strides = input_97_strides_0, weight = self_backbone_features3_conv1_0_weight_fused_bn_to_fp16, x = input_95_cast_fp16)[name = tensor<string, []>("input_97_cast_fp16")];
            tensor<fp16, [1, 192, 24, 24]> input_101_cast_fp16 = relu(x = input_97_cast_fp16)[name = tensor<string, []>("input_101_cast_fp16")];
            tensor<string, []> input_103_pad_type_0 = const()[name = tensor<string, []>("input_103_pad_type_0"), val = tensor<string, []>("custom")];
            tensor<int32, [4]> input_103_pad_0 = const()[name = tensor<string, []>("input_103_pad_0"), val = tensor<int32, [4]>([1, 1, 1, 1])];
            tensor<int32, [2]> input_103_strides_0 = const()[name = tensor<string, []>("input_103_strides_0"), val = tensor<int32, [2]>([2, 2])];
            tensor<int32, []> input_103_groups_0 = const()[name = tensor<string, []>("input_103_groups_0"), val = tensor<int32, []>(192)];
            tensor<int32, [2]> input_103_dilations_0 = const()[name = tensor<string, []>("input_103_dilations_0"), val = tensor<int32, [2]>([1, 1])];
            tensor<fp16, [192, 1, 3, 3]> self_backbone_features3_conv1_3_weight_fused_bn_to_fp16 = const()[name = tensor<string, []>("self_backbone_features3_conv1_3_weight_fused_bn_to_fp16"), val = tensor<fp16, [192, 1, 3, 3]>(BLOBFILE(path = tensor<string, []>("@model_path/weights/weight.bin"), offset = tensor<uint64, []>(102912)))];
            tensor<fp16, [192]> self_backbone_features3_conv1_3_bias_fused_bn_to_fp16 = const()[name = tensor<string, []>("self_backbone_features3_conv1_3_bias_fused_bn_to_fp16"), val = tensor<fp16, [192]>(BLOBFILE(path = tensor<string, []>("@model_path/weights/weight.bin"), offset = tensor<uint64, []>(106432)))];
            tensor<fp16, [1, 192, 12, 12]> input_103_cast_fp16 = conv(bias = self_backbone_features3_conv1_3_bias_fused_bn_to_fp16, dilations = input_103_dilations_0, groups = input_103_groups_0, pad = input_103_pad_0, pad_type = input_103_pad_type_0, strides = input_103_strides_0, weight = self_backbone_features3_conv1_3_weight_fused_bn_to_fp16, x = input_101_cast_fp16)[name = tensor<string, []>("input_103_cast_fp16")];
            tensor<fp16, [1, 192, 12, 12]> input_107_cast_fp16 = relu(x = input_103_cast_fp16)[name = tensor<string, []>("input_107_cast_fp16")];
            tensor<string, []> input_109_pad_type_0 = const()[name = tensor<string, []>("input_109_pad_type_0"), val = tensor<string, []>("valid")];
            tensor<int32, [2]> input_109_strides_0 = const()[name = tensor<string, []>("input_109_strides_0"), val = tensor<int32, [2]>([1, 1])];
            tensor<int32, [4]> input_109_pad_0 = const()[name = tensor<string, []>("input_109_pad_0"), val = tensor<int32, [4]>([0, 0, 0, 0])];
            tensor<int32, [2]> input_109_dilations_0 = const()[name = tensor<string, []>("input_109_dilations_0"), val = tensor<int32, [2]>([1, 1])];
            tensor<int32, []> input_109_groups_0 = const()[name = tensor<string, []>("input_109_groups_0"), val = tensor<int32, []>(1)];
            tensor<fp16, [64, 192, 1, 1]> self_backbone_features3_conv1_6_weight_fused_bn_to_fp16 = const()[name = tensor<string, []>("self_backbone_features3_conv1_6_weight_fused_bn_to_fp16"), val = tensor<fp16, [64, 192, 1, 1]>(BLOBFILE(path = tensor<string, []>("@model_path/weights/weight.bin"), offset = tensor<uint64, []>(106880)))];
            tensor<fp16, [64]> var_21_fused_bn_35_to_fp16 = const()[name = tensor<string, []>("op_21_fused_bn_35_to_fp16"), val = tensor<fp16, [64]>(BLOBFILE(path = tensor<string, []>("@model_path/weights/weight.bin"), offset = tensor<uint64, []>(131520)))];
            tensor<fp16, [1, 64, 12, 12]> input_109_cast_fp16 = conv(bias = var_21_fused_bn_35_to_fp16, dilations = input_109_dilations_0, groups = input_109_groups_0, pad = input_109_pad_0, pad_type = input_109_pad_type_0, strides = input_109_strides_0, weight = self_backbone_features3_conv1_6_weight_fused_bn_to_fp16, x = input_107_cast_fp16)[name = tensor<string, []>("input_109_cast_fp16")];
            tensor<string, []> input_113_pad_type_0 = const()[name = tensor<string, []>("input_113_pad_type_0"), val = tensor<string, []>("valid")];
            tensor<int32, [2]> input_113_strides_0 = const()[name = tensor<string, []>("input_113_strides_0"), val = tensor<int32, [2]>([1, 1])];
            tensor<int32, [4]> input_113_pad_0 = const()[name = tensor<string, []>("input_113_pad_0"), val = tensor<int32, [4]>([0, 0, 0, 0])];
            tensor<int32, [2]> input_113_dilations_0 = const()[name = tensor<string, []>("input_113_dilations_0"), val = tensor<int32, [2]>([1, 1])];
            tensor<int32, []> input_113_groups_0 = const()[name = tensor<string, []>("input_113_groups_0"), val = tensor<int32, []>(1)];
            tensor<fp16, [192, 64, 1, 1]> self_backbone_features3_conv2_0_0_weight_fused_bn_to_fp16 = const()[name = tensor<string, []>("self_backbone_features3_conv2_0_0_weight_fused_bn_to_fp16"), val = tensor<fp16, [192, 64, 1, 1]>(BLOBFILE(path = tensor<string, []>("@model_path/weights/weight.bin"), offset = tensor<uint64, []>(131712)))];
            tensor<fp16, [192]> var_21_fused_bn_37_to_fp16 = const()[name = tensor<string, []>("op_21_fused_bn_37_to_fp16"), val = tensor<fp16, [192]>(BLOBFILE(path = tensor<string, []>("@model_path/weights/weight.bin"), offset = tensor<uint64, []>(156352)))];
            tensor<fp16, [1, 192, 12, 12]> input_113_cast_fp16 = conv(bias = var_21_fused_bn_37_to_fp16, dilations = input_113_dilations_0, groups = input_113_groups_0, pad = input_113_pad_0, pad_type = input_113_pad_type_0, strides = input_113_strides_0, weight = self_backbone_features3_conv2_0_0_weight_fused_bn_to_fp16, x = input_109_cast_fp16)[name = tensor<string, []>("input_113_cast_fp16")];
            tensor<fp16, [1, 192, 12, 12]> input_117_cast_fp16 = relu(x = input_113_cast_fp16)[name = tensor<string, []>("input_117_cast_fp16")];
            tensor<string, []> input_119_pad_type_0 = const()[name = tensor<string, []>("input_119_pad_type_0"), val = tensor<string, []>("custom")];
            tensor<int32, [4]> input_119_pad_0 = const()[name = tensor<string, []>("input_119_pad_0"), val = tensor<int32, [4]>([1, 1, 1, 1])];
            tensor<int32, []> input_119_groups_0 = const()[name = tensor<string, []>("input_119_groups_0"), val = tensor<int32, []>(192)];
            tensor<int32, [2]> input_119_strides_0 = const()[name = tensor<string, []>("input_119_strides_0"), val = tensor<int32, [2]>([1, 1])];
            tensor<int32, [2]> input_119_dilations_0 = const()[name = tensor<string, []>("input_119_dilations_0"), val = tensor<int32, [2]>([1, 1])];
            tensor<fp16, [192, 1, 3, 3]> self_backbone_features3_conv2_0_3_weight_fused_bn_to_fp16 = const()[name = tensor<string, []>("self_backbone_features3_conv2_0_3_weight_fused_bn_to_fp16"), val = tensor<fp16, [192, 1, 3, 3]>(BLOBFILE(path = tensor<string, []>("@model_path/weights/weight.bin"), offset = tensor<uint64, []>(156800)))];
            tensor<fp16, [192]> var_21_fused_bn_39_to_fp16 = const()[name = tensor<string, []>("op_21_fused_bn_39_to_fp16"), val = tensor<fp16, [192]>(BLOBFILE(path = tensor<string, []>("@model_path/weights/weight.bin"), offset = tensor<uint64, []>(160320)))];
            tensor<fp16, [1, 192, 12, 12]> input_119_cast_fp16 = conv(bias = var_21_fused_bn_39_to_fp16, dilations = input_119_dilations_0, groups = input_119_groups_0, pad = input_119_pad_0, pad_type = input_119_pad_type_0, strides = input_119_strides_0, weight = self_backbone_features3_conv2_0_3_weight_fused_bn_to_fp16, x = input_117_cast_fp16)[name = tensor<string, []>("input_119_cast_fp16")];
            tensor<fp16, [1, 192, 12, 12]> input_123_cast_fp16 = relu(x = input_119_cast_fp16)[name = tensor<string, []>("input_123_cast_fp16")];
            tensor<string, []> input_125_pad_type_0 = const()[name = tensor<string, []>("input_125_pad_type_0"), val = tensor<string, []>("valid")];
            tensor<int32, [2]> input_125_strides_0 = const()[name = tensor<string, []>("input_125_strides_0"), val = tensor<int32, [2]>([1, 1])];
            tensor<int32, [4]> input_125_pad_0 = const()[name = tensor<string, []>("input_125_pad_0"), val = tensor<int32, [4]>([0, 0, 0, 0])];
            tensor<int32, [2]> input_125_dilations_0 = const()[name = tensor<string, []>("input_125_dilations_0"), val = tensor<int32, [2]>([1, 1])];
            tensor<int32, []> input_125_groups_0 = const()[name = tensor<string, []>("input_125_groups_0"), val = tensor<int32, []>(1)];
            tensor<fp16, [64, 192, 1, 1]> self_backbone_features3_conv2_0_6_weight_fused_bn_to_fp16 = const()[name = tensor<string, []>("self_backbone_features3_conv2_0_6_weight_fused_bn_to_fp16"), val = tensor<fp16, [64, 192, 1, 1]>(BLOBFILE(path = tensor<string, []>("@model_path/weights/weight.bin"), offset = tensor<uint64, []>(160768)))];
            tensor<fp16, [64]> var_21_fused_bn_41_to_fp16 = const()[name = tensor<string, []>("op_21_fused_bn_41_to_fp16"), val = tensor<fp16, [64]>(BLOBFILE(path = tensor<string, []>("@model_path/weights/weight.bin"), offset = tensor<uint64, []>(185408)))];
            tensor<fp16, [1, 64, 12, 12]> input_125_cast_fp16 = conv(bias = var_21_fused_bn_41_to_fp16, dilations = input_125_dilations_0, groups = input_125_groups_0, pad = input_125_pad_0, pad_type = input_125_pad_type_0, strides = input_125_strides_0, weight = self_backbone_features3_conv2_0_6_weight_fused_bn_to_fp16, x = input_123_cast_fp16)[name = tensor<string, []>("input_125_cast_fp16")];
            tensor<fp16, [1, 64, 12, 12]> input_127_cast_fp16 = add(x = input_109_cast_fp16, y = input_125_cast_fp16)[name = tensor<string, []>("input_127_cast_fp16")];
            tensor<string, []> input_129_pad_type_0 = const()[name = tensor<string, []>("input_129_pad_type_0"), val = tensor<string, []>("valid")];
            tensor<int32, [2]> input_129_strides_0 = const()[name = tensor<string, []>("input_129_strides_0"), val = tensor<int32, [2]>([1, 1])];
            tensor<int32, [4]> input_129_pad_0 = const()[name = tensor<string, []>("input_129_pad_0"), val = tensor<int32, [4]>([0, 0, 0, 0])];
            tensor<int32, [2]> input_129_dilations_0 = const()[name = tensor<string, []>("input_129_dilations_0"), val = tensor<int32, [2]>([1, 1])];
            tensor<int32, []> input_129_groups_0 = const()[name = tensor<string, []>("input_129_groups_0"), val = tensor<int32, []>(1)];
            tensor<fp16, [192, 64, 1, 1]> self_backbone_features3_conv2_1_0_weight_fused_bn_to_fp16 = const()[name = tensor<string, []>("self_backbone_features3_conv2_1_0_weight_fused_bn_to_fp16"), val = tensor<fp16, [192, 64, 1, 1]>(BLOBFILE(path = tensor<string, []>("@model_path/weights/weight.bin"), offset = tensor<uint64, []>(185600)))];
            tensor<fp16, [192]> var_21_fused_bn_43_to_fp16 = const()[name = tensor<string, []>("op_21_fused_bn_43_to_fp16"), val = tensor<fp16, [192]>(BLOBFILE(path = tensor<string, []>("@model_path/weights/weight.bin"), offset = tensor<uint64, []>(210240)))];
            tensor<fp16, [1, 192, 12, 12]> input_129_cast_fp16 = conv(bias = var_21_fused_bn_43_to_fp16, dilations = input_129_dilations_0, groups = input_129_groups_0, pad = input_129_pad_0, pad_type = input_129_pad_type_0, strides = input_129_strides_0, weight = self_backbone_features3_conv2_1_0_weight_fused_bn_to_fp16, x = input_127_cast_fp16)[name = tensor<string, []>("input_129_cast_fp16")];
            tensor<fp16, [1, 192, 12, 12]> input_133_cast_fp16 = relu(x = input_129_cast_fp16)[name = tensor<string, []>("input_133_cast_fp16")];
            tensor<string, []> input_135_pad_type_0 = const()[name = tensor<string, []>("input_135_pad_type_0"), val = tensor<string, []>("custom")];
            tensor<int32, [4]> input_135_pad_0 = const()[name = tensor<string, []>("input_135_pad_0"), val = tensor<int32, [4]>([1, 1, 1, 1])];
            tensor<int32, []> input_135_groups_0 = const()[name = tensor<string, []>("input_135_groups_0"), val = tensor<int32, []>(192)];
            tensor<int32, [2]> input_135_strides_0 = const()[name = tensor<string, []>("input_135_strides_0"), val = tensor<int32, [2]>([1, 1])];
            tensor<int32, [2]> input_135_dilations_0 = const()[name = tensor<string, []>("input_135_dilations_0"), val = tensor<int32, [2]>([1, 1])];
            tensor<fp16, [192, 1, 3, 3]> self_backbone_features3_conv2_1_3_weight_fused_bn_to_fp16 = const()[name = tensor<string, []>("self_backbone_features3_conv2_1_3_weight_fused_bn_to_fp16"), val = tensor<fp16, [192, 1, 3, 3]>(BLOBFILE(path = tensor<string, []>("@model_path/weights/weight.bin"), offset = tensor<uint64, []>(210688)))];
            tensor<fp16, [192]> var_21_fused_bn_45_to_fp16 = const()[name = tensor<string, []>("op_21_fused_bn_45_to_fp16"), val = tensor<fp16, [192]>(BLOBFILE(path = tensor<string, []>("@model_path/weights/weight.bin"), offset = tensor<uint64, []>(214208)))];
            tensor<fp16, [1, 192, 12, 12]> input_135_cast_fp16 = conv(bias = var_21_fused_bn_45_to_fp16, dilations = input_135_dilations_0, groups = input_135_groups_0, pad = input_135_pad_0, pad_type = input_135_pad_type_0, strides = input_135_strides_0, weight = self_backbone_features3_conv2_1_3_weight_fused_bn_to_fp16, x = input_133_cast_fp16)[name = tensor<string, []>("input_135_cast_fp16")];
            tensor<fp16, [1, 192, 12, 12]> input_139_cast_fp16 = relu(x = input_135_cast_fp16)[name = tensor<string, []>("input_139_cast_fp16")];
            tensor<string, []> input_141_pad_type_0 = const()[name = tensor<string, []>("input_141_pad_type_0"), val = tensor<string, []>("valid")];
            tensor<int32, [2]> input_141_strides_0 = const()[name = tensor<string, []>("input_141_strides_0"), val = tensor<int32, [2]>([1, 1])];
            tensor<int32, [4]> input_141_pad_0 = const()[name = tensor<string, []>("input_141_pad_0"), val = tensor<int32, [4]>([0, 0, 0, 0])];
            tensor<int32, [2]> input_141_dilations_0 = const()[name = tensor<string, []>("input_141_dilations_0"), val = tensor<int32, [2]>([1, 1])];
            tensor<int32, []> input_141_groups_0 = const()[name = tensor<string, []>("input_141_groups_0"), val = tensor<int32, []>(1)];
            tensor<fp16, [64, 192, 1, 1]> self_backbone_features3_conv2_1_6_weight_fused_bn_to_fp16 = const()[name = tensor<string, []>("self_backbone_features3_conv2_1_6_weight_fused_bn_to_fp16"), val = tensor<fp16, [64, 192, 1, 1]>(BLOBFILE(path = tensor<string, []>("@model_path/weights/weight.bin"), offset = tensor<uint64, []>(214656)))];
            tensor<fp16, [64]> var_21_fused_bn_47_to_fp16 = const()[name = tensor<string, []>("op_21_fused_bn_47_to_fp16"), val = tensor<fp16, [64]>(BLOBFILE(path = tensor<string, []>("@model_path/weights/weight.bin"), offset = tensor<uint64, []>(239296)))];
            tensor<fp16, [1, 64, 12, 12]> input_141_cast_fp16 = conv(bias = var_21_fused_bn_47_to_fp16, dilations = input_141_dilations_0, groups = input_141_groups_0, pad = input_141_pad_0, pad_type = input_141_pad_type_0, strides = input_141_strides_0, weight = self_backbone_features3_conv2_1_6_weight_fused_bn_to_fp16, x = input_139_cast_fp16)[name = tensor<string, []>("input_141_cast_fp16")];
            tensor<fp16, [1, 64, 12, 12]> input_143_cast_fp16 = add(x = input_127_cast_fp16, y = input_141_cast_fp16)[name = tensor<string, []>("input_143_cast_fp16")];
            tensor<string, []> input_145_pad_type_0 = const()[name = tensor<string, []>("input_145_pad_type_0"), val = tensor<string, []>("valid")];
            tensor<int32, [2]> input_145_strides_0 = const()[name = tensor<string, []>("input_145_strides_0"), val = tensor<int32, [2]>([1, 1])];
            tensor<int32, [4]> input_145_pad_0 = const()[name = tensor<string, []>("input_145_pad_0"), val = tensor<int32, [4]>([0, 0, 0, 0])];
            tensor<int32, [2]> input_145_dilations_0 = const()[name = tensor<string, []>("input_145_dilations_0"), val = tensor<int32, [2]>([1, 1])];
            tensor<int32, []> input_145_groups_0 = const()[name = tensor<string, []>("input_145_groups_0"), val = tensor<int32, []>(1)];
            tensor<fp16, [192, 64, 1, 1]> self_backbone_features3_conv2_2_0_weight_fused_bn_to_fp16 = const()[name = tensor<string, []>("self_backbone_features3_conv2_2_0_weight_fused_bn_to_fp16"), val = tensor<fp16, [192, 64, 1, 1]>(BLOBFILE(path = tensor<string, []>("@model_path/weights/weight.bin"), offset = tensor<uint64, []>(239488)))];
            tensor<fp16, [192]> var_21_fused_bn_49_to_fp16 = const()[name = tensor<string, []>("op_21_fused_bn_49_to_fp16"), val = tensor<fp16, [192]>(BLOBFILE(path = tensor<string, []>("@model_path/weights/weight.bin"), offset = tensor<uint64, []>(264128)))];
            tensor<fp16, [1, 192, 12, 12]> input_145_cast_fp16 = conv(bias = var_21_fused_bn_49_to_fp16, dilations = input_145_dilations_0, groups = input_145_groups_0, pad = input_145_pad_0, pad_type = input_145_pad_type_0, strides = input_145_strides_0, weight = self_backbone_features3_conv2_2_0_weight_fused_bn_to_fp16, x = input_143_cast_fp16)[name = tensor<string, []>("input_145_cast_fp16")];
            tensor<fp16, [1, 192, 12, 12]> input_149_cast_fp16 = relu(x = input_145_cast_fp16)[name = tensor<string, []>("input_149_cast_fp16")];
            tensor<string, []> input_151_pad_type_0 = const()[name = tensor<string, []>("input_151_pad_type_0"), val = tensor<string, []>("custom")];
            tensor<int32, [4]> input_151_pad_0 = const()[name = tensor<string, []>("input_151_pad_0"), val = tensor<int32, [4]>([1, 1, 1, 1])];
            tensor<int32, []> input_151_groups_0 = const()[name = tensor<string, []>("input_151_groups_0"), val = tensor<int32, []>(192)];
            tensor<int32, [2]> input_151_strides_0 = const()[name = tensor<string, []>("input_151_strides_0"), val = tensor<int32, [2]>([1, 1])];
            tensor<int32, [2]> input_151_dilations_0 = const()[name = tensor<string, []>("input_151_dilations_0"), val = tensor<int32, [2]>([1, 1])];
            tensor<fp16, [192, 1, 3, 3]> self_backbone_features3_conv2_2_3_weight_fused_bn_to_fp16 = const()[name = tensor<string, []>("self_backbone_features3_conv2_2_3_weight_fused_bn_to_fp16"), val = tensor<fp16, [192, 1, 3, 3]>(BLOBFILE(path = tensor<string, []>("@model_path/weights/weight.bin"), offset = tensor<uint64, []>(264576)))];
            tensor<fp16, [192]> var_21_fused_bn_51_to_fp16 = const()[name = tensor<string, []>("op_21_fused_bn_51_to_fp16"), val = tensor<fp16, [192]>(BLOBFILE(path = tensor<string, []>("@model_path/weights/weight.bin"), offset = tensor<uint64, []>(268096)))];
            tensor<fp16, [1, 192, 12, 12]> input_151_cast_fp16 = conv(bias = var_21_fused_bn_51_to_fp16, dilations = input_151_dilations_0, groups = input_151_groups_0, pad = input_151_pad_0, pad_type = input_151_pad_type_0, strides = input_151_strides_0, weight = self_backbone_features3_conv2_2_3_weight_fused_bn_to_fp16, x = input_149_cast_fp16)[name = tensor<string, []>("input_151_cast_fp16")];
            tensor<fp16, [1, 192, 12, 12]> input_155_cast_fp16 = relu(x = input_151_cast_fp16)[name = tensor<string, []>("input_155_cast_fp16")];
            tensor<string, []> input_157_pad_type_0 = const()[name = tensor<string, []>("input_157_pad_type_0"), val = tensor<string, []>("valid")];
            tensor<int32, [2]> input_157_strides_0 = const()[name = tensor<string, []>("input_157_strides_0"), val = tensor<int32, [2]>([1, 1])];
            tensor<int32, [4]> input_157_pad_0 = const()[name = tensor<string, []>("input_157_pad_0"), val = tensor<int32, [4]>([0, 0, 0, 0])];
            tensor<int32, [2]> input_157_dilations_0 = const()[name = tensor<string, []>("input_157_dilations_0"), val = tensor<int32, [2]>([1, 1])];
            tensor<int32, []> input_157_groups_0 = const()[name = tensor<string, []>("input_157_groups_0"), val = tensor<int32, []>(1)];
            tensor<fp16, [64, 192, 1, 1]> self_backbone_features3_conv2_2_6_weight_fused_bn_to_fp16 = const()[name = tensor<string, []>("self_backbone_features3_conv2_2_6_weight_fused_bn_to_fp16"), val = tensor<fp16, [64, 192, 1, 1]>(BLOBFILE(path = tensor<string, []>("@model_path/weights/weight.bin"), offset = tensor<uint64, []>(268544)))];
            tensor<fp16, [64]> var_21_fused_bn_53_to_fp16 = const()[name = tensor<string, []>("op_21_fused_bn_53_to_fp16"), val = tensor<fp16, [64]>(BLOBFILE(path = tensor<string, []>("@model_path/weights/weight.bin"), offset = tensor<uint64, []>(293184)))];
            tensor<fp16, [1, 64, 12, 12]> input_157_cast_fp16 = conv(bias = var_21_fused_bn_53_to_fp16, dilations = input_157_dilations_0, groups = input_157_groups_0, pad = input_157_pad_0, pad_type = input_157_pad_type_0, strides = input_157_strides_0, weight = self_backbone_features3_conv2_2_6_weight_fused_bn_to_fp16, x = input_155_cast_fp16)[name = tensor<string, []>("input_157_cast_fp16")];
            tensor<fp16, [1, 64, 12, 12]> input_159_cast_fp16 = add(x = input_143_cast_fp16, y = input_157_cast_fp16)[name = tensor<string, []>("input_159_cast_fp16")];
            tensor<string, []> input_161_pad_type_0 = const()[name = tensor<string, []>("input_161_pad_type_0"), val = tensor<string, []>("valid")];
            tensor<int32, [2]> input_161_strides_0 = const()[name = tensor<string, []>("input_161_strides_0"), val = tensor<int32, [2]>([1, 1])];
            tensor<int32, [4]> input_161_pad_0 = const()[name = tensor<string, []>("input_161_pad_0"), val = tensor<int32, [4]>([0, 0, 0, 0])];
            tensor<int32, [2]> input_161_dilations_0 = const()[name = tensor<string, []>("input_161_dilations_0"), val = tensor<int32, [2]>([1, 1])];
            tensor<int32, []> input_161_groups_0 = const()[name = tensor<string, []>("input_161_groups_0"), val = tensor<int32, []>(1)];
            tensor<fp16, [384, 64, 1, 1]> self_backbone_features4_0_conv1_0_weight_fused_bn_to_fp16 = const()[name = tensor<string, []>("self_backbone_features4_0_conv1_0_weight_fused_bn_to_fp16"), val = tensor<fp16, [384, 64, 1, 1]>(BLOBFILE(path = tensor<string, []>("@model_path/weights/weight.bin"), offset = tensor<uint64, []>(293376)))];
            tensor<fp16, [384]> var_21_fused_bn_55_to_fp16 = const()[name = tensor<string, []>("op_21_fused_bn_55_to_fp16"), val = tensor<fp16, [384]>(BLOBFILE(path = tensor<string, []>("@model_path/weights/weight.bin"), offset = tensor<uint64, []>(342592)))];
            tensor<fp16, [1, 384, 12, 12]> input_161_cast_fp16 = conv(bias = var_21_fused_bn_55_to_fp16, dilations = input_161_dilations_0, groups = input_161_groups_0, pad = input_161_pad_0, pad_type = input_161_pad_type_0, strides = input_161_strides_0, weight = self_backbone_features4_0_conv1_0_weight_fused_bn_to_fp16, x = input_159_cast_fp16)[name = tensor<string, []>("input_161_cast_fp16")];
            tensor<fp16, [1, 384, 12, 12]> input_165_cast_fp16 = relu(x = input_161_cast_fp16)[name = tensor<string, []>("input_165_cast_fp16")];
            tensor<string, []> input_167_pad_type_0 = const()[name = tensor<string, []>("input_167_pad_type_0"), val = tensor<string, []>("custom")];
            tensor<int32, [4]> input_167_pad_0 = const()[name = tensor<string, []>("input_167_pad_0"), val = tensor<int32, [4]>([1, 1, 1, 1])];
            tensor<int32, []> input_167_groups_0 = const()[name = tensor<string, []>("input_167_groups_0"), val = tensor<int32, []>(384)];
            tensor<int32, [2]> input_167_strides_0 = const()[name = tensor<string, []>("input_167_strides_0"), val = tensor<int32, [2]>([1, 1])];
            tensor<int32, [2]> input_167_dilations_0 = const()[name = tensor<string, []>("input_167_dilations_0"), val = tensor<int32, [2]>([1, 1])];
            tensor<fp16, [384, 1, 3, 3]> self_backbone_features4_0_conv1_3_weight_fused_bn_to_fp16 = const()[name = tensor<string, []>("self_backbone_features4_0_conv1_3_weight_fused_bn_to_fp16"), val = tensor<fp16, [384, 1, 3, 3]>(BLOBFILE(path = tensor<string, []>("@model_path/weights/weight.bin"), offset = tensor<uint64, []>(343424)))];
            tensor<fp16, [384]> self_backbone_features4_0_conv1_3_bias_fused_bn_to_fp16 = const()[name = tensor<string, []>("self_backbone_features4_0_conv1_3_bias_fused_bn_to_fp16"), val = tensor<fp16, [384]>(BLOBFILE(path = tensor<string, []>("@model_path/weights/weight.bin"), offset = tensor<uint64, []>(350400)))];
            tensor<fp16, [1, 384, 12, 12]> input_167_cast_fp16 = conv(bias = self_backbone_features4_0_conv1_3_bias_fused_bn_to_fp16, dilations = input_167_dilations_0, groups = input_167_groups_0, pad = input_167_pad_0, pad_type = input_167_pad_type_0, strides = input_167_strides_0, weight = self_backbone_features4_0_conv1_3_weight_fused_bn_to_fp16, x = input_165_cast_fp16)[name = tensor<string, []>("input_167_cast_fp16")];
            tensor<fp16, [1, 384, 12, 12]> input_171_cast_fp16 = relu(x = input_167_cast_fp16)[name = tensor<string, []>("input_171_cast_fp16")];
            tensor<string, []> input_173_pad_type_0 = const()[name = tensor<string, []>("input_173_pad_type_0"), val = tensor<string, []>("valid")];
            tensor<int32, [2]> input_173_strides_0 = const()[name = tensor<string, []>("input_173_strides_0"), val = tensor<int32, [2]>([1, 1])];
            tensor<int32, [4]> input_173_pad_0 = const()[name = tensor<string, []>("input_173_pad_0"), val = tensor<int32, [4]>([0, 0, 0, 0])];
            tensor<int32, [2]> input_173_dilations_0 = const()[name = tensor<string, []>("input_173_dilations_0"), val = tensor<int32, [2]>([1, 1])];
            tensor<int32, []> input_173_groups_0 = const()[name = tensor<string, []>("input_173_groups_0"), val = tensor<int32, []>(1)];
            tensor<fp16, [96, 384, 1, 1]> self_backbone_features4_0_conv1_6_weight_fused_bn_to_fp16 = const()[name = tensor<string, []>("self_backbone_features4_0_conv1_6_weight_fused_bn_to_fp16"), val = tensor<fp16, [96, 384, 1, 1]>(BLOBFILE(path = tensor<string, []>("@model_path/weights/weight.bin"), offset = tensor<uint64, []>(351232)))];
            tensor<fp16, [96]> var_21_fused_bn_57_to_fp16 = const()[name = tensor<string, []>("op_21_fused_bn_57_to_fp16"), val = tensor<fp16, [96]>(BLOBFILE(path = tensor<string, []>("@model_path/weights/weight.bin"), offset = tensor<uint64, []>(425024)))];
            tensor<fp16, [1, 96, 12, 12]> input_173_cast_fp16 = conv(bias = var_21_fused_bn_57_to_fp16, dilations = input_173_dilations_0, groups = input_173_groups_0, pad = input_173_pad_0, pad_type = input_173_pad_type_0, strides = input_173_strides_0, weight = self_backbone_features4_0_conv1_6_weight_fused_bn_to_fp16, x = input_171_cast_fp16)[name = tensor<string, []>("input_173_cast_fp16")];
            tensor<string, []> input_177_pad_type_0 = const()[name = tensor<string, []>("input_177_pad_type_0"), val = tensor<string, []>("valid")];
            tensor<int32, [2]> input_177_strides_0 = const()[name = tensor<string, []>("input_177_strides_0"), val = tensor<int32, [2]>([1, 1])];
            tensor<int32, [4]> input_177_pad_0 = const()[name = tensor<string, []>("input_177_pad_0"), val = tensor<int32, [4]>([0, 0, 0, 0])];
            tensor<int32, [2]> input_177_dilations_0 = const()[name = tensor<string, []>("input_177_dilations_0"), val = tensor<int32, [2]>([1, 1])];
            tensor<int32, []> input_177_groups_0 = const()[name = tensor<string, []>("input_177_groups_0"), val = tensor<int32, []>(1)];
            tensor<fp16, [384, 96, 1, 1]> self_backbone_features4_0_conv2_0_0_weight_fused_bn_to_fp16 = const()[name = tensor<string, []>("self_backbone_features4_0_conv2_0_0_weight_fused_bn_to_fp16"), val = tensor<fp16, [384, 96, 1, 1]>(BLOBFILE(path = tensor<string, []>("@model_path/weights/weight.bin"), offset = tensor<uint64, []>(425280)))];
            tensor<fp16, [384]> var_21_fused_bn_59_to_fp16 = const()[name = tensor<string, []>("op_21_fused_bn_59_to_fp16"), val = tensor<fp16, [384]>(BLOBFILE(path = tensor<string, []>("@model_path/weights/weight.bin"), offset = tensor<uint64, []>(499072)))];
            tensor<fp16, [1, 384, 12, 12]> input_177_cast_fp16 = conv(bias = var_21_fused_bn_59_to_fp16, dilations = input_177_dilations_0, groups = input_177_groups_0, pad = input_177_pad_0, pad_type = input_177_pad_type_0, strides = input_177_strides_0, weight = self_backbone_features4_0_conv2_0_0_weight_fused_bn_to_fp16, x = input_173_cast_fp16)[name = tensor<string, []>("input_177_cast_fp16")];
            tensor<fp16, [1, 384, 12, 12]> input_181_cast_fp16 = relu(x = input_177_cast_fp16)[name = tensor<string, []>("input_181_cast_fp16")];
            tensor<string, []> input_183_pad_type_0 = const()[name = tensor<string, []>("input_183_pad_type_0"), val = tensor<string, []>("custom")];
            tensor<int32, [4]> input_183_pad_0 = const()[name = tensor<string, []>("input_183_pad_0"), val = tensor<int32, [4]>([1, 1, 1, 1])];
            tensor<int32, []> input_183_groups_0 = const()[name = tensor<string, []>("input_183_groups_0"), val = tensor<int32, []>(384)];
            tensor<int32, [2]> input_183_strides_0 = const()[name = tensor<string, []>("input_183_strides_0"), val = tensor<int32, [2]>([1, 1])];
            tensor<int32, [2]> input_183_dilations_0 = const()[name = tensor<string, []>("input_183_dilations_0"), val = tensor<int32, [2]>([1, 1])];
            tensor<fp16, [384, 1, 3, 3]> self_backbone_features4_0_conv2_0_3_weight_fused_bn_to_fp16 = const()[name = tensor<string, []>("self_backbone_features4_0_conv2_0_3_weight_fused_bn_to_fp16"), val = tensor<fp16, [384, 1, 3, 3]>(BLOBFILE(path = tensor<string, []>("@model_path/weights/weight.bin"), offset = tensor<uint64, []>(499904)))];
            tensor<fp16, [384]> var_21_fused_bn_61_to_fp16 = const()[name = tensor<string, []>("op_21_fused_bn_61_to_fp16"), val = tensor<fp16, [384]>(BLOBFILE(path = tensor<string, []>("@model_path/weights/weight.bin"), offset = tensor<uint64, []>(506880)))];
            tensor<fp16, [1, 384, 12, 12]> input_183_cast_fp16 = conv(bias = var_21_fused_bn_61_to_fp16, dilations = input_183_dilations_0, groups = input_183_groups_0, pad = input_183_pad_0, pad_type = input_183_pad_type_0, strides = input_183_strides_0, weight = self_backbone_features4_0_conv2_0_3_weight_fused_bn_to_fp16, x = input_181_cast_fp16)[name = tensor<string, []>("input_183_cast_fp16")];
            tensor<fp16, [1, 384, 12, 12]> input_187_cast_fp16 = relu(x = input_183_cast_fp16)[name = tensor<string, []>("input_187_cast_fp16")];
            tensor<string, []> input_189_pad_type_0 = const()[name = tensor<string, []>("input_189_pad_type_0"), val = tensor<string, []>("valid")];
            tensor<int32, [2]> input_189_strides_0 = const()[name = tensor<string, []>("input_189_strides_0"), val = tensor<int32, [2]>([1, 1])];
            tensor<int32, [4]> input_189_pad_0 = const()[name = tensor<string, []>("input_189_pad_0"), val = tensor<int32, [4]>([0, 0, 0, 0])];
            tensor<int32, [2]> input_189_dilations_0 = const()[name = tensor<string, []>("input_189_dilations_0"), val = tensor<int32, [2]>([1, 1])];
            tensor<int32, []> input_189_groups_0 = const()[name = tensor<string, []>("input_189_groups_0"), val = tensor<int32, []>(1)];
            tensor<fp16, [96, 384, 1, 1]> self_backbone_features4_0_conv2_0_6_weight_fused_bn_to_fp16 = const()[name = tensor<string, []>("self_backbone_features4_0_conv2_0_6_weight_fused_bn_to_fp16"), val = tensor<fp16, [96, 384, 1, 1]>(BLOBFILE(path = tensor<string, []>("@model_path/weights/weight.bin"), offset = tensor<uint64, []>(507712)))];
            tensor<fp16, [96]> var_21_fused_bn_63_to_fp16 = const()[name = tensor<string, []>("op_21_fused_bn_63_to_fp16"), val = tensor<fp16, [96]>(BLOBFILE(path = tensor<string, []>("@model_path/weights/weight.bin"), offset = tensor<uint64, []>(581504)))];
            tensor<fp16, [1, 96, 12, 12]> input_189_cast_fp16 = conv(bias = var_21_fused_bn_63_to_fp16, dilations = input_189_dilations_0, groups = input_189_groups_0, pad = input_189_pad_0, pad_type = input_189_pad_type_0, strides = input_189_strides_0, weight = self_backbone_features4_0_conv2_0_6_weight_fused_bn_to_fp16, x = input_187_cast_fp16)[name = tensor<string, []>("input_189_cast_fp16")];
            tensor<fp16, [1, 96, 12, 12]> input_191_cast_fp16 = add(x = input_173_cast_fp16, y = input_189_cast_fp16)[name = tensor<string, []>("input_191_cast_fp16")];
            tensor<string, []> input_193_pad_type_0 = const()[name = tensor<string, []>("input_193_pad_type_0"), val = tensor<string, []>("valid")];
            tensor<int32, [2]> input_193_strides_0 = const()[name = tensor<string, []>("input_193_strides_0"), val = tensor<int32, [2]>([1, 1])];
            tensor<int32, [4]> input_193_pad_0 = const()[name = tensor<string, []>("input_193_pad_0"), val = tensor<int32, [4]>([0, 0, 0, 0])];
            tensor<int32, [2]> input_193_dilations_0 = const()[name = tensor<string, []>("input_193_dilations_0"), val = tensor<int32, [2]>([1, 1])];
            tensor<int32, []> input_193_groups_0 = const()[name = tensor<string, []>("input_193_groups_0"), val = tensor<int32, []>(1)];
            tensor<fp16, [384, 96, 1, 1]> self_backbone_features4_0_conv2_1_0_weight_fused_bn_to_fp16 = const()[name = tensor<string, []>("self_backbone_features4_0_conv2_1_0_weight_fused_bn_to_fp16"), val = tensor<fp16, [384, 96, 1, 1]>(BLOBFILE(path = tensor<string, []>("@model_path/weights/weight.bin"), offset = tensor<uint64, []>(581760)))];
            tensor<fp16, [384]> var_21_fused_bn_65_to_fp16 = const()[name = tensor<string, []>("op_21_fused_bn_65_to_fp16"), val = tensor<fp16, [384]>(BLOBFILE(path = tensor<string, []>("@model_path/weights/weight.bin"), offset = tensor<uint64, []>(655552)))];
            tensor<fp16, [1, 384, 12, 12]> input_193_cast_fp16 = conv(bias = var_21_fused_bn_65_to_fp16, dilations = input_193_dilations_0, groups = input_193_groups_0, pad = input_193_pad_0, pad_type = input_193_pad_type_0, strides = input_193_strides_0, weight = self_backbone_features4_0_conv2_1_0_weight_fused_bn_to_fp16, x = input_191_cast_fp16)[name = tensor<string, []>("input_193_cast_fp16")];
            tensor<fp16, [1, 384, 12, 12]> input_197_cast_fp16 = relu(x = input_193_cast_fp16)[name = tensor<string, []>("input_197_cast_fp16")];
            tensor<string, []> input_199_pad_type_0 = const()[name = tensor<string, []>("input_199_pad_type_0"), val = tensor<string, []>("custom")];
            tensor<int32, [4]> input_199_pad_0 = const()[name = tensor<string, []>("input_199_pad_0"), val = tensor<int32, [4]>([1, 1, 1, 1])];
            tensor<int32, []> input_199_groups_0 = const()[name = tensor<string, []>("input_199_groups_0"), val = tensor<int32, []>(384)];
            tensor<int32, [2]> input_199_strides_0 = const()[name = tensor<string, []>("input_199_strides_0"), val = tensor<int32, [2]>([1, 1])];
            tensor<int32, [2]> input_199_dilations_0 = const()[name = tensor<string, []>("input_199_dilations_0"), val = tensor<int32, [2]>([1, 1])];
            tensor<fp16, [384, 1, 3, 3]> self_backbone_features4_0_conv2_1_3_weight_fused_bn_to_fp16 = const()[name = tensor<string, []>("self_backbone_features4_0_conv2_1_3_weight_fused_bn_to_fp16"), val = tensor<fp16, [384, 1, 3, 3]>(BLOBFILE(path = tensor<string, []>("@model_path/weights/weight.bin"), offset = tensor<uint64, []>(656384)))];
            tensor<fp16, [384]> var_21_fused_bn_67_to_fp16 = const()[name = tensor<string, []>("op_21_fused_bn_67_to_fp16"), val = tensor<fp16, [384]>(BLOBFILE(path = tensor<string, []>("@model_path/weights/weight.bin"), offset = tensor<uint64, []>(663360)))];
            tensor<fp16, [1, 384, 12, 12]> input_199_cast_fp16 = conv(bias = var_21_fused_bn_67_to_fp16, dilations = input_199_dilations_0, groups = input_199_groups_0, pad = input_199_pad_0, pad_type = input_199_pad_type_0, strides = input_199_strides_0, weight = self_backbone_features4_0_conv2_1_3_weight_fused_bn_to_fp16, x = input_197_cast_fp16)[name = tensor<string, []>("input_199_cast_fp16")];
            tensor<fp16, [1, 384, 12, 12]> input_203_cast_fp16 = relu(x = input_199_cast_fp16)[name = tensor<string, []>("input_203_cast_fp16")];
            tensor<string, []> input_205_pad_type_0 = const()[name = tensor<string, []>("input_205_pad_type_0"), val = tensor<string, []>("valid")];
            tensor<int32, [2]> input_205_strides_0 = const()[name = tensor<string, []>("input_205_strides_0"), val = tensor<int32, [2]>([1, 1])];
            tensor<int32, [4]> input_205_pad_0 = const()[name = tensor<string, []>("input_205_pad_0"), val = tensor<int32, [4]>([0, 0, 0, 0])];
            tensor<int32, [2]> input_205_dilations_0 = const()[name = tensor<string, []>("input_205_dilations_0"), val = tensor<int32, [2]>([1, 1])];
            tensor<int32, []> input_205_groups_0 = const()[name = tensor<string, []>("input_205_groups_0"), val = tensor<int32, []>(1)];
            tensor<fp16, [96, 384, 1, 1]> self_backbone_features4_0_conv2_1_6_weight_fused_bn_to_fp16 = const()[name = tensor<string, []>("self_backbone_features4_0_conv2_1_6_weight_fused_bn_to_fp16"), val = tensor<fp16, [96, 384, 1, 1]>(BLOBFILE(path = tensor<string, []>("@model_path/weights/weight.bin"), offset = tensor<uint64, []>(664192)))];
            tensor<fp16, [96]> var_21_fused_bn_69_to_fp16 = const()[name = tensor<string, []>("op_21_fused_bn_69_to_fp16"), val = tensor<fp16, [96]>(BLOBFILE(path = tensor<string, []>("@model_path/weights/weight.bin"), offset = tensor<uint64, []>(737984)))];
            tensor<fp16, [1, 96, 12, 12]> input_205_cast_fp16 = conv(bias = var_21_fused_bn_69_to_fp16, dilations = input_205_dilations_0, groups = input_205_groups_0, pad = input_205_pad_0, pad_type = input_205_pad_type_0, strides = input_205_strides_0, weight = self_backbone_features4_0_conv2_1_6_weight_fused_bn_to_fp16, x = input_203_cast_fp16)[name = tensor<string, []>("input_205_cast_fp16")];
            tensor<fp16, [1, 96, 12, 12]> input_207_cast_fp16 = add(x = input_191_cast_fp16, y = input_205_cast_fp16)[name = tensor<string, []>("input_207_cast_fp16")];
            tensor<string, []> input_209_pad_type_0 = const()[name = tensor<string, []>("input_209_pad_type_0"), val = tensor<string, []>("valid")];
            tensor<int32, [2]> input_209_strides_0 = const()[name = tensor<string, []>("input_209_strides_0"), val = tensor<int32, [2]>([1, 1])];
            tensor<int32, [4]> input_209_pad_0 = const()[name = tensor<string, []>("input_209_pad_0"), val = tensor<int32, [4]>([0, 0, 0, 0])];
            tensor<int32, [2]> input_209_dilations_0 = const()[name = tensor<string, []>("input_209_dilations_0"), val = tensor<int32, [2]>([1, 1])];
            tensor<int32, []> input_209_groups_0 = const()[name = tensor<string, []>("input_209_groups_0"), val = tensor<int32, []>(1)];
            tensor<fp16, [576, 96, 1, 1]> self_backbone_features4_1_conv1_0_weight_fused_bn_to_fp16 = const()[name = tensor<string, []>("self_backbone_features4_1_conv1_0_weight_fused_bn_to_fp16"), val = tensor<fp16, [576, 96, 1, 1]>(BLOBFILE(path = tensor<string, []>("@model_path/weights/weight.bin"), offset = tensor<uint64, []>(738240)))];
            tensor<fp16, [576]> var_21_fused_bn_71_to_fp16 = const()[name = tensor<string, []>("op_21_fused_bn_71_to_fp16"), val = tensor<fp16, [576]>(BLOBFILE(path = tensor<string, []>("@model_path/weights/weight.bin"), offset = tensor<uint64, []>(848896)))];
            tensor<fp16, [1, 576, 12, 12]> input_209_cast_fp16 = conv(bias = var_21_fused_bn_71_to_fp16, dilations = input_209_dilations_0, groups = input_209_groups_0, pad = input_209_pad_0, pad_type = input_209_pad_type_0, strides = input_209_strides_0, weight = self_backbone_features4_1_conv1_0_weight_fused_bn_to_fp16, x = input_207_cast_fp16)[name = tensor<string, []>("input_209_cast_fp16")];
            tensor<fp16, [1, 576, 12, 12]> input_213_cast_fp16 = relu(x = input_209_cast_fp16)[name = tensor<string, []>("input_213_cast_fp16")];
            tensor<string, []> input_215_pad_type_0 = const()[name = tensor<string, []>("input_215_pad_type_0"), val = tensor<string, []>("custom")];
            tensor<int32, [4]> input_215_pad_0 = const()[name = tensor<string, []>("input_215_pad_0"), val = tensor<int32, [4]>([1, 1, 1, 1])];
            tensor<int32, [2]> input_215_strides_0 = const()[name = tensor<string, []>("input_215_strides_0"), val = tensor<int32, [2]>([2, 2])];
            tensor<int32, []> input_215_groups_0 = const()[name = tensor<string, []>("input_215_groups_0"), val = tensor<int32, []>(576)];
            tensor<int32, [2]> input_215_dilations_0 = const()[name = tensor<string, []>("input_215_dilations_0"), val = tensor<int32, [2]>([1, 1])];
            tensor<fp16, [576, 1, 3, 3]> self_backbone_features4_1_conv1_3_weight_fused_bn_to_fp16 = const()[name = tensor<string, []>("self_backbone_features4_1_conv1_3_weight_fused_bn_to_fp16"), val = tensor<fp16, [576, 1, 3, 3]>(BLOBFILE(path = tensor<string, []>("@model_path/weights/weight.bin"), offset = tensor<uint64, []>(850112)))];
            tensor<fp16, [576]> self_backbone_features4_1_conv1_3_bias_fused_bn_to_fp16 = const()[name = tensor<string, []>("self_backbone_features4_1_conv1_3_bias_fused_bn_to_fp16"), val = tensor<fp16, [576]>(BLOBFILE(path = tensor<string, []>("@model_path/weights/weight.bin"), offset = tensor<uint64, []>(860544)))];
            tensor<fp16, [1, 576, 6, 6]> input_215_cast_fp16 = conv(bias = self_backbone_features4_1_conv1_3_bias_fused_bn_to_fp16, dilations = input_215_dilations_0, groups = input_215_groups_0, pad = input_215_pad_0, pad_type = input_215_pad_type_0, strides = input_215_strides_0, weight = self_backbone_features4_1_conv1_3_weight_fused_bn_to_fp16, x = input_213_cast_fp16)[name = tensor<string, []>("input_215_cast_fp16")];
            tensor<fp16, [1, 576, 6, 6]> input_219_cast_fp16 = relu(x = input_215_cast_fp16)[name = tensor<string, []>("input_219_cast_fp16")];
            tensor<string, []> input_221_pad_type_0 = const()[name = tensor<string, []>("input_221_pad_type_0"), val = tensor<string, []>("valid")];
            tensor<int32, [2]> input_221_strides_0 = const()[name = tensor<string, []>("input_221_strides_0"), val = tensor<int32, [2]>([1, 1])];
            tensor<int32, [4]> input_221_pad_0 = const()[name = tensor<string, []>("input_221_pad_0"), val = tensor<int32, [4]>([0, 0, 0, 0])];
            tensor<int32, [2]> input_221_dilations_0 = const()[name = tensor<string, []>("input_221_dilations_0"), val = tensor<int32, [2]>([1, 1])];
            tensor<int32, []> input_221_groups_0 = const()[name = tensor<string, []>("input_221_groups_0"), val = tensor<int32, []>(1)];
            tensor<fp16, [160, 576, 1, 1]> self_backbone_features4_1_conv1_6_weight_fused_bn_to_fp16 = const()[name = tensor<string, []>("self_backbone_features4_1_conv1_6_weight_fused_bn_to_fp16"), val = tensor<fp16, [160, 576, 1, 1]>(BLOBFILE(path = tensor<string, []>("@model_path/weights/weight.bin"), offset = tensor<uint64, []>(861760)))];
            tensor<fp16, [160]> var_21_fused_bn_73_to_fp16 = const()[name = tensor<string, []>("op_21_fused_bn_73_to_fp16"), val = tensor<fp16, [160]>(BLOBFILE(path = tensor<string, []>("@model_path/weights/weight.bin"), offset = tensor<uint64, []>(1046144)))];
            tensor<fp16, [1, 160, 6, 6]> input_221_cast_fp16 = conv(bias = var_21_fused_bn_73_to_fp16, dilations = input_221_dilations_0, groups = input_221_groups_0, pad = input_221_pad_0, pad_type = input_221_pad_type_0, strides = input_221_strides_0, weight = self_backbone_features4_1_conv1_6_weight_fused_bn_to_fp16, x = input_219_cast_fp16)[name = tensor<string, []>("input_221_cast_fp16")];
            tensor<string, []> input_225_pad_type_0 = const()[name = tensor<string, []>("input_225_pad_type_0"), val = tensor<string, []>("valid")];
            tensor<int32, [2]> input_225_strides_0 = const()[name = tensor<string, []>("input_225_strides_0"), val = tensor<int32, [2]>([1, 1])];
            tensor<int32, [4]> input_225_pad_0 = const()[name = tensor<string, []>("input_225_pad_0"), val = tensor<int32, [4]>([0, 0, 0, 0])];
            tensor<int32, [2]> input_225_dilations_0 = const()[name = tensor<string, []>("input_225_dilations_0"), val = tensor<int32, [2]>([1, 1])];
            tensor<int32, []> input_225_groups_0 = const()[name = tensor<string, []>("input_225_groups_0"), val = tensor<int32, []>(1)];
            tensor<fp16, [576, 160, 1, 1]> self_backbone_features4_1_conv2_0_0_weight_fused_bn_to_fp16 = const()[name = tensor<string, []>("self_backbone_features4_1_conv2_0_0_weight_fused_bn_to_fp16"), val = tensor<fp16, [576, 160, 1, 1]>(BLOBFILE(path = tensor<string, []>("@model_path/weights/weight.bin"), offset = tensor<uint64, []>(1046528)))];
            tensor<fp16, [576]> var_21_fused_bn_75_to_fp16 = const()[name = tensor<string, []>("op_21_fused_bn_75_to_fp16"), val = tensor<fp16, [576]>(BLOBFILE(path = tensor<string, []>("@model_path/weights/weight.bin"), offset = tensor<uint64, []>(1230912)))];
            tensor<fp16, [1, 576, 6, 6]> input_225_cast_fp16 = conv(bias = var_21_fused_bn_75_to_fp16, dilations = input_225_dilations_0, groups = input_225_groups_0, pad = input_225_pad_0, pad_type = input_225_pad_type_0, strides = input_225_strides_0, weight = self_backbone_features4_1_conv2_0_0_weight_fused_bn_to_fp16, x = input_221_cast_fp16)[name = tensor<string, []>("input_225_cast_fp16")];
            tensor<fp16, [1, 576, 6, 6]> input_229_cast_fp16 = relu(x = input_225_cast_fp16)[name = tensor<string, []>("input_229_cast_fp16")];
            tensor<string, []> input_231_pad_type_0 = const()[name = tensor<string, []>("input_231_pad_type_0"), val = tensor<string, []>("custom")];
            tensor<int32, [4]> input_231_pad_0 = const()[name = tensor<string, []>("input_231_pad_0"), val = tensor<int32, [4]>([1, 1, 1, 1])];
            tensor<int32, []> input_231_groups_0 = const()[name = tensor<string, []>("input_231_groups_0"), val = tensor<int32, []>(576)];
            tensor<int32, [2]> input_231_strides_0 = const()[name = tensor<string, []>("input_231_strides_0"), val = tensor<int32, [2]>([1, 1])];
            tensor<int32, [2]> input_231_dilations_0 = const()[name = tensor<string, []>("input_231_dilations_0"), val = tensor<int32, [2]>([1, 1])];
            tensor<fp16, [576, 1, 3, 3]> self_backbone_features4_1_conv2_0_3_weight_fused_bn_to_fp16 = const()[name = tensor<string, []>("self_backbone_features4_1_conv2_0_3_weight_fused_bn_to_fp16"), val = tensor<fp16, [576, 1, 3, 3]>(BLOBFILE(path = tensor<string, []>("@model_path/weights/weight.bin"), offset = tensor<uint64, []>(1232128)))];
            tensor<fp16, [576]> var_21_fused_bn_77_to_fp16 = const()[name = tensor<string, []>("op_21_fused_bn_77_to_fp16"), val = tensor<fp16, [576]>(BLOBFILE(path = tensor<string, []>("@model_path/weights/weight.bin"), offset = tensor<uint64, []>(1242560)))];
            tensor<fp16, [1, 576, 6, 6]> input_231_cast_fp16 = conv(bias = var_21_fused_bn_77_to_fp16, dilations = input_231_dilations_0, groups = input_231_groups_0, pad = input_231_pad_0, pad_type = input_231_pad_type_0, strides = input_231_strides_0, weight = self_backbone_features4_1_conv2_0_3_weight_fused_bn_to_fp16, x = input_229_cast_fp16)[name = tensor<string, []>("input_231_cast_fp16")];
            tensor<fp16, [1, 576, 6, 6]> input_235_cast_fp16 = relu(x = input_231_cast_fp16)[name = tensor<string, []>("input_235_cast_fp16")];
            tensor<string, []> input_237_pad_type_0 = const()[name = tensor<string, []>("input_237_pad_type_0"), val = tensor<string, []>("valid")];
            tensor<int32, [2]> input_237_strides_0 = const()[name = tensor<string, []>("input_237_strides_0"), val = tensor<int32, [2]>([1, 1])];
            tensor<int32, [4]> input_237_pad_0 = const()[name = tensor<string, []>("input_237_pad_0"), val = tensor<int32, [4]>([0, 0, 0, 0])];
            tensor<int32, [2]> input_237_dilations_0 = const()[name = tensor<string, []>("input_237_dilations_0"), val = tensor<int32, [2]>([1, 1])];
            tensor<int32, []> input_237_groups_0 = const()[name = tensor<string, []>("input_237_groups_0"), val = tensor<int32, []>(1)];
            tensor<fp16, [160, 576, 1, 1]> self_backbone_features4_1_conv2_0_6_weight_fused_bn_to_fp16 = const()[name = tensor<string, []>("self_backbone_features4_1_conv2_0_6_weight_fused_bn_to_fp16"), val = tensor<fp16, [160, 576, 1, 1]>(BLOBFILE(path = tensor<string, []>("@model_path/weights/weight.bin"), offset = tensor<uint64, []>(1243776)))];
            tensor<fp16, [160]> var_21_fused_bn_79_to_fp16 = const()[name = tensor<string, []>("op_21_fused_bn_79_to_fp16"), val = tensor<fp16, [160]>(BLOBFILE(path = tensor<string, []>("@model_path/weights/weight.bin"), offset = tensor<uint64, []>(1428160)))];
            tensor<fp16, [1, 160, 6, 6]> input_237_cast_fp16 = conv(bias = var_21_fused_bn_79_to_fp16, dilations = input_237_dilations_0, groups = input_237_groups_0, pad = input_237_pad_0, pad_type = input_237_pad_type_0, strides = input_237_strides_0, weight = self_backbone_features4_1_conv2_0_6_weight_fused_bn_to_fp16, x = input_235_cast_fp16)[name = tensor<string, []>("input_237_cast_fp16")];
            tensor<fp16, [1, 160, 6, 6]> input_239_cast_fp16 = add(x = input_221_cast_fp16, y = input_237_cast_fp16)[name = tensor<string, []>("input_239_cast_fp16")];
            tensor<string, []> input_241_pad_type_0 = const()[name = tensor<string, []>("input_241_pad_type_0"), val = tensor<string, []>("valid")];
            tensor<int32, [2]> input_241_strides_0 = const()[name = tensor<string, []>("input_241_strides_0"), val = tensor<int32, [2]>([1, 1])];
            tensor<int32, [4]> input_241_pad_0 = const()[name = tensor<string, []>("input_241_pad_0"), val = tensor<int32, [4]>([0, 0, 0, 0])];
            tensor<int32, [2]> input_241_dilations_0 = const()[name = tensor<string, []>("input_241_dilations_0"), val = tensor<int32, [2]>([1, 1])];
            tensor<int32, []> input_241_groups_0 = const()[name = tensor<string, []>("input_241_groups_0"), val = tensor<int32, []>(1)];
            tensor<fp16, [576, 160, 1, 1]> self_backbone_features4_1_conv2_1_0_weight_fused_bn_to_fp16 = const()[name = tensor<string, []>("self_backbone_features4_1_conv2_1_0_weight_fused_bn_to_fp16"), val = tensor<fp16, [576, 160, 1, 1]>(BLOBFILE(path = tensor<string, []>("@model_path/weights/weight.bin"), offset = tensor<uint64, []>(1428544)))];
            tensor<fp16, [576]> var_21_fused_bn_81_to_fp16 = const()[name = tensor<string, []>("op_21_fused_bn_81_to_fp16"), val = tensor<fp16, [576]>(BLOBFILE(path = tensor<string, []>("@model_path/weights/weight.bin"), offset = tensor<uint64, []>(1612928)))];
            tensor<fp16, [1, 576, 6, 6]> input_241_cast_fp16 = conv(bias = var_21_fused_bn_81_to_fp16, dilations = input_241_dilations_0, groups = input_241_groups_0, pad = input_241_pad_0, pad_type = input_241_pad_type_0, strides = input_241_strides_0, weight = self_backbone_features4_1_conv2_1_0_weight_fused_bn_to_fp16, x = input_239_cast_fp16)[name = tensor<string, []>("input_241_cast_fp16")];
            tensor<fp16, [1, 576, 6, 6]> input_245_cast_fp16 = relu(x = input_241_cast_fp16)[name = tensor<string, []>("input_245_cast_fp16")];
            tensor<string, []> input_247_pad_type_0 = const()[name = tensor<string, []>("input_247_pad_type_0"), val = tensor<string, []>("custom")];
            tensor<int32, [4]> input_247_pad_0 = const()[name = tensor<string, []>("input_247_pad_0"), val = tensor<int32, [4]>([1, 1, 1, 1])];
            tensor<int32, []> input_247_groups_0 = const()[name = tensor<string, []>("input_247_groups_0"), val = tensor<int32, []>(576)];
            tensor<int32, [2]> input_247_strides_0 = const()[name = tensor<string, []>("input_247_strides_0"), val = tensor<int32, [2]>([1, 1])];
            tensor<int32, [2]> input_247_dilations_0 = const()[name = tensor<string, []>("input_247_dilations_0"), val = tensor<int32, [2]>([1, 1])];
            tensor<fp16, [576, 1, 3, 3]> self_backbone_features4_1_conv2_1_3_weight_fused_bn_to_fp16 = const()[name = tensor<string, []>("self_backbone_features4_1_conv2_1_3_weight_fused_bn_to_fp16"), val = tensor<fp16, [576, 1, 3, 3]>(BLOBFILE(path = tensor<string, []>("@model_path/weights/weight.bin"), offset = tensor<uint64, []>(1614144)))];
            tensor<fp16, [576]> var_21_fused_bn_83_to_fp16 = const()[name = tensor<string, []>("op_21_fused_bn_83_to_fp16"), val = tensor<fp16, [576]>(BLOBFILE(path = tensor<string, []>("@model_path/weights/weight.bin"), offset = tensor<uint64, []>(1624576)))];
            tensor<fp16, [1, 576, 6, 6]> input_247_cast_fp16 = conv(bias = var_21_fused_bn_83_to_fp16, dilations = input_247_dilations_0, groups = input_247_groups_0, pad = input_247_pad_0, pad_type = input_247_pad_type_0, strides = input_247_strides_0, weight = self_backbone_features4_1_conv2_1_3_weight_fused_bn_to_fp16, x = input_245_cast_fp16)[name = tensor<string, []>("input_247_cast_fp16")];
            tensor<fp16, [1, 576, 6, 6]> input_251_cast_fp16 = relu(x = input_247_cast_fp16)[name = tensor<string, []>("input_251_cast_fp16")];
            tensor<string, []> input_253_pad_type_0 = const()[name = tensor<string, []>("input_253_pad_type_0"), val = tensor<string, []>("valid")];
            tensor<int32, [2]> input_253_strides_0 = const()[name = tensor<string, []>("input_253_strides_0"), val = tensor<int32, [2]>([1, 1])];
            tensor<int32, [4]> input_253_pad_0 = const()[name = tensor<string, []>("input_253_pad_0"), val = tensor<int32, [4]>([0, 0, 0, 0])];
            tensor<int32, [2]> input_253_dilations_0 = const()[name = tensor<string, []>("input_253_dilations_0"), val = tensor<int32, [2]>([1, 1])];
            tensor<int32, []> input_253_groups_0 = const()[name = tensor<string, []>("input_253_groups_0"), val = tensor<int32, []>(1)];
            tensor<fp16, [160, 576, 1, 1]> self_backbone_features4_1_conv2_1_6_weight_fused_bn_to_fp16 = const()[name = tensor<string, []>("self_backbone_features4_1_conv2_1_6_weight_fused_bn_to_fp16"), val = tensor<fp16, [160, 576, 1, 1]>(BLOBFILE(path = tensor<string, []>("@model_path/weights/weight.bin"), offset = tensor<uint64, []>(1625792)))];
            tensor<fp16, [160]> var_21_fused_bn_85_to_fp16 = const()[name = tensor<string, []>("op_21_fused_bn_85_to_fp16"), val = tensor<fp16, [160]>(BLOBFILE(path = tensor<string, []>("@model_path/weights/weight.bin"), offset = tensor<uint64, []>(1810176)))];
            tensor<fp16, [1, 160, 6, 6]> input_253_cast_fp16 = conv(bias = var_21_fused_bn_85_to_fp16, dilations = input_253_dilations_0, groups = input_253_groups_0, pad = input_253_pad_0, pad_type = input_253_pad_type_0, strides = input_253_strides_0, weight = self_backbone_features4_1_conv2_1_6_weight_fused_bn_to_fp16, x = input_251_cast_fp16)[name = tensor<string, []>("input_253_cast_fp16")];
            tensor<fp16, [1, 160, 6, 6]> input_255_cast_fp16 = add(x = input_239_cast_fp16, y = input_253_cast_fp16)[name = tensor<string, []>("input_255_cast_fp16")];
            tensor<string, []> input_257_pad_type_0 = const()[name = tensor<string, []>("input_257_pad_type_0"), val = tensor<string, []>("valid")];
            tensor<int32, [2]> input_257_strides_0 = const()[name = tensor<string, []>("input_257_strides_0"), val = tensor<int32, [2]>([1, 1])];
            tensor<int32, [4]> input_257_pad_0 = const()[name = tensor<string, []>("input_257_pad_0"), val = tensor<int32, [4]>([0, 0, 0, 0])];
            tensor<int32, [2]> input_257_dilations_0 = const()[name = tensor<string, []>("input_257_dilations_0"), val = tensor<int32, [2]>([1, 1])];
            tensor<int32, []> input_257_groups_0 = const()[name = tensor<string, []>("input_257_groups_0"), val = tensor<int32, []>(1)];
            tensor<fp16, [960, 160, 1, 1]> self_backbone_features4_2_conv1_0_weight_fused_bn_to_fp16 = const()[name = tensor<string, []>("self_backbone_features4_2_conv1_0_weight_fused_bn_to_fp16"), val = tensor<fp16, [960, 160, 1, 1]>(BLOBFILE(path = tensor<string, []>("@model_path/weights/weight.bin"), offset = tensor<uint64, []>(1810560)))];
            tensor<fp16, [960]> var_21_fused_bn_87_to_fp16 = const()[name = tensor<string, []>("op_21_fused_bn_87_to_fp16"), val = tensor<fp16, [960]>(BLOBFILE(path = tensor<string, []>("@model_path/weights/weight.bin"), offset = tensor<uint64, []>(2117824)))];
            tensor<fp16, [1, 960, 6, 6]> input_257_cast_fp16 = conv(bias = var_21_fused_bn_87_to_fp16, dilations = input_257_dilations_0, groups = input_257_groups_0, pad = input_257_pad_0, pad_type = input_257_pad_type_0, strides = input_257_strides_0, weight = self_backbone_features4_2_conv1_0_weight_fused_bn_to_fp16, x = input_255_cast_fp16)[name = tensor<string, []>("input_257_cast_fp16")];
            tensor<fp16, [1, 960, 6, 6]> input_261_cast_fp16 = relu(x = input_257_cast_fp16)[name = tensor<string, []>("input_261_cast_fp16")];
            tensor<string, []> input_263_pad_type_0 = const()[name = tensor<string, []>("input_263_pad_type_0"), val = tensor<string, []>("custom")];
            tensor<int32, [4]> input_263_pad_0 = const()[name = tensor<string, []>("input_263_pad_0"), val = tensor<int32, [4]>([1, 1, 1, 1])];
            tensor<int32, []> input_263_groups_0 = const()[name = tensor<string, []>("input_263_groups_0"), val = tensor<int32, []>(960)];
            tensor<int32, [2]> input_263_strides_0 = const()[name = tensor<string, []>("input_263_strides_0"), val = tensor<int32, [2]>([1, 1])];
            tensor<int32, [2]> input_263_dilations_0 = const()[name = tensor<string, []>("input_263_dilations_0"), val = tensor<int32, [2]>([1, 1])];
            tensor<fp16, [960, 1, 3, 3]> self_backbone_features4_2_conv1_3_weight_fused_bn_to_fp16 = const()[name = tensor<string, []>("self_backbone_features4_2_conv1_3_weight_fused_bn_to_fp16"), val = tensor<fp16, [960, 1, 3, 3]>(BLOBFILE(path = tensor<string, []>("@model_path/weights/weight.bin"), offset = tensor<uint64, []>(2119808)))];
            tensor<fp16, [960]> self_backbone_features4_2_conv1_3_bias_fused_bn_to_fp16 = const()[name = tensor<string, []>("self_backbone_features4_2_conv1_3_bias_fused_bn_to_fp16"), val = tensor<fp16, [960]>(BLOBFILE(path = tensor<string, []>("@model_path/weights/weight.bin"), offset = tensor<uint64, []>(2137152)))];
            tensor<fp16, [1, 960, 6, 6]> input_263_cast_fp16 = conv(bias = self_backbone_features4_2_conv1_3_bias_fused_bn_to_fp16, dilations = input_263_dilations_0, groups = input_263_groups_0, pad = input_263_pad_0, pad_type = input_263_pad_type_0, strides = input_263_strides_0, weight = self_backbone_features4_2_conv1_3_weight_fused_bn_to_fp16, x = input_261_cast_fp16)[name = tensor<string, []>("input_263_cast_fp16")];
            tensor<fp16, [1, 960, 6, 6]> input_267_cast_fp16 = relu(x = input_263_cast_fp16)[name = tensor<string, []>("input_267_cast_fp16")];
            tensor<string, []> input_269_pad_type_0 = const()[name = tensor<string, []>("input_269_pad_type_0"), val = tensor<string, []>("valid")];
            tensor<int32, [2]> input_269_strides_0 = const()[name = tensor<string, []>("input_269_strides_0"), val = tensor<int32, [2]>([1, 1])];
            tensor<int32, [4]> input_269_pad_0 = const()[name = tensor<string, []>("input_269_pad_0"), val = tensor<int32, [4]>([0, 0, 0, 0])];
            tensor<int32, [2]> input_269_dilations_0 = const()[name = tensor<string, []>("input_269_dilations_0"), val = tensor<int32, [2]>([1, 1])];
            tensor<int32, []> input_269_groups_0 = const()[name = tensor<string, []>("input_269_groups_0"), val = tensor<int32, []>(1)];
            tensor<fp16, [320, 960, 1, 1]> self_backbone_features4_2_conv1_6_weight_fused_bn_to_fp16 = const()[name = tensor<string, []>("self_backbone_features4_2_conv1_6_weight_fused_bn_to_fp16"), val = tensor<fp16, [320, 960, 1, 1]>(BLOBFILE(path = tensor<string, []>("@model_path/weights/weight.bin"), offset = tensor<uint64, []>(2139136)))];
            tensor<fp16, [320]> var_21_fused_bn_89_to_fp16 = const()[name = tensor<string, []>("op_21_fused_bn_89_to_fp16"), val = tensor<fp16, [320]>(BLOBFILE(path = tensor<string, []>("@model_path/weights/weight.bin"), offset = tensor<uint64, []>(2753600)))];
            tensor<fp16, [1, 320, 6, 6]> input_269_cast_fp16 = conv(bias = var_21_fused_bn_89_to_fp16, dilations = input_269_dilations_0, groups = input_269_groups_0, pad = input_269_pad_0, pad_type = input_269_pad_type_0, strides = input_269_strides_0, weight = self_backbone_features4_2_conv1_6_weight_fused_bn_to_fp16, x = input_267_cast_fp16)[name = tensor<string, []>("input_269_cast_fp16")];
            tensor<string, []> input_273_pad_type_0 = const()[name = tensor<string, []>("input_273_pad_type_0"), val = tensor<string, []>("valid")];
            tensor<int32, [2]> input_273_strides_0 = const()[name = tensor<string, []>("input_273_strides_0"), val = tensor<int32, [2]>([1, 1])];
            tensor<int32, [4]> input_273_pad_0 = const()[name = tensor<string, []>("input_273_pad_0"), val = tensor<int32, [4]>([0, 0, 0, 0])];
            tensor<int32, [2]> input_273_dilations_0 = const()[name = tensor<string, []>("input_273_dilations_0"), val = tensor<int32, [2]>([1, 1])];
            tensor<int32, []> input_273_groups_0 = const()[name = tensor<string, []>("input_273_groups_0"), val = tensor<int32, []>(1)];
            tensor<fp16, [1280, 320, 1, 1]> self_backbone_features4_3_0_weight_fused_bn_to_fp16 = const()[name = tensor<string, []>("self_backbone_features4_3_0_weight_fused_bn_to_fp16"), val = tensor<fp16, [1280, 320, 1, 1]>(BLOBFILE(path = tensor<string, []>("@model_path/weights/weight.bin"), offset = tensor<uint64, []>(2754304)))];
            tensor<fp16, [1280]> var_21_fused_bn_91_to_fp16 = const()[name = tensor<string, []>("op_21_fused_bn_91_to_fp16"), val = tensor<fp16, [1280]>(BLOBFILE(path = tensor<string, []>("@model_path/weights/weight.bin"), offset = tensor<uint64, []>(3573568)))];
            tensor<fp16, [1, 1280, 6, 6]> input_273_cast_fp16 = conv(bias = var_21_fused_bn_91_to_fp16, dilations = input_273_dilations_0, groups = input_273_groups_0, pad = input_273_pad_0, pad_type = input_273_pad_type_0, strides = input_273_strides_0, weight = self_backbone_features4_3_0_weight_fused_bn_to_fp16, x = input_269_cast_fp16)[name = tensor<string, []>("input_273_cast_fp16")];
            tensor<fp16, [1, 1280, 6, 6]> input_277_cast_fp16 = relu(x = input_273_cast_fp16)[name = tensor<string, []>("input_277_cast_fp16")];
            tensor<string, []> input_279_pad_type_0 = const()[name = tensor<string, []>("input_279_pad_type_0"), val = tensor<string, []>("valid")];
            tensor<int32, [2]> input_279_strides_0 = const()[name = tensor<string, []>("input_279_strides_0"), val = tensor<int32, [2]>([1, 1])];
            tensor<int32, [4]> input_279_pad_0 = const()[name = tensor<string, []>("input_279_pad_0"), val = tensor<int32, [4]>([0, 0, 0, 0])];
            tensor<int32, [2]> input_279_dilations_0 = const()[name = tensor<string, []>("input_279_dilations_0"), val = tensor<int32, [2]>([1, 1])];
            tensor<int32, []> input_279_groups_0 = const()[name = tensor<string, []>("input_279_groups_0"), val = tensor<int32, []>(1)];
            tensor<fp16, [64, 1280, 1, 1]> self_backbone_features4_4_weight_to_fp16 = const()[name = tensor<string, []>("self_backbone_features4_4_weight_to_fp16"), val = tensor<fp16, [64, 1280, 1, 1]>(BLOBFILE(path = tensor<string, []>("@model_path/weights/weight.bin"), offset = tensor<uint64, []>(3576192)))];
            tensor<fp16, [1, 64, 6, 6]> input_279_cast_fp16 = conv(dilations = input_279_dilations_0, groups = input_279_groups_0, pad = input_279_pad_0, pad_type = input_279_pad_type_0, strides = input_279_strides_0, weight = self_backbone_features4_4_weight_to_fp16, x = input_277_cast_fp16)[name = tensor<string, []>("input_279_cast_fp16")];
            tensor<fp32, []> f4_1_scale_factor_height_0 = const()[name = tensor<string, []>("f4_1_scale_factor_height_0"), val = tensor<fp32, []>(0x1p+1)];
            tensor<fp32, []> f4_1_scale_factor_width_0 = const()[name = tensor<string, []>("f4_1_scale_factor_width_0"), val = tensor<fp32, []>(0x1p+1)];
            tensor<bool, []> f4_1_align_corners_0 = const()[name = tensor<string, []>("f4_1_align_corners_0"), val = tensor<bool, []>(false)];
            tensor<fp16, [1, 64, 12, 12]> f4_1_cast_fp16 = upsample_bilinear(align_corners = f4_1_align_corners_0, scale_factor_height = f4_1_scale_factor_height_0, scale_factor_width = f4_1_scale_factor_width_0, x = input_279_cast_fp16)[name = tensor<string, []>("f4_1_cast_fp16")];
            tensor<string, []> f3_pad_type_0 = const()[name = tensor<string, []>("f3_pad_type_0"), val = tensor<string, []>("valid")];
            tensor<int32, [2]> f3_strides_0 = const()[name = tensor<string, []>("f3_strides_0"), val = tensor<int32, [2]>([1, 1])];
            tensor<int32, [4]> f3_pad_0 = const()[name = tensor<string, []>("f3_pad_0"), val = tensor<int32, [4]>([0, 0, 0, 0])];
            tensor<int32, [2]> f3_dilations_0 = const()[name = tensor<string, []>("f3_dilations_0"), val = tensor<int32, [2]>([1, 1])];
            tensor<int32, []> f3_groups_0 = const()[name = tensor<string, []>("f3_groups_0"), val = tensor<int32, []>(1)];
            tensor<fp16, [64, 64, 1, 1]> self_backbone_conv3_weight_to_fp16 = const()[name = tensor<string, []>("self_backbone_conv3_weight_to_fp16"), val = tensor<fp16, [64, 64, 1, 1]>(BLOBFILE(path = tensor<string, []>("@model_path/weights/weight.bin"), offset = tensor<uint64, []>(3740096)))];
            tensor<fp16, [64]> self_backbone_conv3_bias_to_fp16 = const()[name = tensor<string, []>("self_backbone_conv3_bias_to_fp16"), val = tensor<fp16, [64]>(BLOBFILE(path = tensor<string, []>("@model_path/weights/weight.bin"), offset = tensor<uint64, []>(3748352)))];
            tensor<fp16, [1, 64, 12, 12]> f3_cast_fp16 = conv(bias = self_backbone_conv3_bias_to_fp16, dilations = f3_dilations_0, groups = f3_groups_0, pad = f3_pad_0, pad_type = f3_pad_type_0, strides = f3_strides_0, weight = self_backbone_conv3_weight_to_fp16, x = input_159_cast_fp16)[name = tensor<string, []>("f3_cast_fp16")];
            tensor<fp16, [1, 64, 12, 12]> input_281_cast_fp16 = add(x = f4_1_cast_fp16, y = f3_cast_fp16)[name = tensor<string, []>("input_281_cast_fp16")];
            tensor<string, []> input_283_pad_type_0 = const()[name = tensor<string, []>("input_283_pad_type_0"), val = tensor<string, []>("custom")];
            tensor<int32, [4]> input_283_pad_0 = const()[name = tensor<string, []>("input_283_pad_0"), val = tensor<int32, [4]>([1, 1, 1, 1])];
            tensor<int32, []> input_283_groups_0 = const()[name = tensor<string, []>("input_283_groups_0"), val = tensor<int32, []>(64)];
            tensor<int32, [2]> input_283_strides_0 = const()[name = tensor<string, []>("input_283_strides_0"), val = tensor<int32, [2]>([1, 1])];
            tensor<int32, [2]> input_283_dilations_0 = const()[name = tensor<string, []>("input_283_dilations_0"), val = tensor<int32, [2]>([1, 1])];
            tensor<fp16, [64, 1, 3, 3]> self_backbone_upsample2_0_weight_to_fp16 = const()[name = tensor<string, []>("self_backbone_upsample2_0_weight_to_fp16"), val = tensor<fp16, [64, 1, 3, 3]>(BLOBFILE(path = tensor<string, []>("@model_path/weights/weight.bin"), offset = tensor<uint64, []>(3748544)))];
            tensor<fp16, [64]> self_backbone_upsample2_0_bias_to_fp16 = const()[name = tensor<string, []>("self_backbone_upsample2_0_bias_to_fp16"), val = tensor<fp16, [64]>(BLOBFILE(path = tensor<string, []>("@model_path/weights/weight.bin"), offset = tensor<uint64, []>(3749760)))];
            tensor<fp16, [1, 64, 12, 12]> input_283_cast_fp16 = conv(bias = self_backbone_upsample2_0_bias_to_fp16, dilations = input_283_dilations_0, groups = input_283_groups_0, pad = input_283_pad_0, pad_type = input_283_pad_type_0, strides = input_283_strides_0, weight = self_backbone_upsample2_0_weight_to_fp16, x = input_281_cast_fp16)[name = tensor<string, []>("input_283_cast_fp16")];
            tensor<fp16, [1, 64, 12, 12]> input_285_cast_fp16 = relu(x = input_283_cast_fp16)[name = tensor<string, []>("input_285_cast_fp16")];
            tensor<string, []> input_287_pad_type_0 = const()[name = tensor<string, []>("input_287_pad_type_0"), val = tensor<string, []>("valid")];
            tensor<int32, [2]> input_287_strides_0 = const()[name = tensor<string, []>("input_287_strides_0"), val = tensor<int32, [2]>([1, 1])];
            tensor<int32, [4]> input_287_pad_0 = const()[name = tensor<string, []>("input_287_pad_0"), val = tensor<int32, [4]>([0, 0, 0, 0])];
            tensor<int32, [2]> input_287_dilations_0 = const()[name = tensor<string, []>("input_287_dilations_0"), val = tensor<int32, [2]>([1, 1])];
            tensor<int32, []> input_287_groups_0 = const()[name = tensor<string, []>("input_287_groups_0"), val = tensor<int32, []>(1)];
            tensor<fp16, [32, 64, 1, 1]> self_backbone_upsample2_2_0_weight_fused_bn_to_fp16 = const()[name = tensor<string, []>("self_backbone_upsample2_2_0_weight_fused_bn_to_fp16"), val = tensor<fp16, [32, 64, 1, 1]>(BLOBFILE(path = tensor<string, []>("@model_path/weights/weight.bin"), offset = tensor<uint64, []>(3749952)))];
            tensor<fp16, [32]> var_21_fused_bn_93_to_fp16 = const()[name = tensor<string, []>("op_21_fused_bn_93_to_fp16"), val = tensor<fp16, [32]>(BLOBFILE(path = tensor<string, []>("@model_path/weights/weight.bin"), offset = tensor<uint64, []>(3754112)))];
            tensor<fp16, [1, 32, 12, 12]> input_287_cast_fp16 = conv(bias = var_21_fused_bn_93_to_fp16, dilations = input_287_dilations_0, groups = input_287_groups_0, pad = input_287_pad_0, pad_type = input_287_pad_type_0, strides = input_287_strides_0, weight = self_backbone_upsample2_2_0_weight_fused_bn_to_fp16, x = input_285_cast_fp16)[name = tensor<string, []>("input_287_cast_fp16")];
            tensor<fp16, [1, 32, 12, 12]> input_291_cast_fp16 = relu(x = input_287_cast_fp16)[name = tensor<string, []>("input_291_cast_fp16")];
            tensor<fp32, []> f4_3_scale_factor_height_0 = const()[name = tensor<string, []>("f4_3_scale_factor_height_0"), val = tensor<fp32, []>(0x1p+1)];
            tensor<fp32, []> f4_3_scale_factor_width_0 = const()[name = tensor<string, []>("f4_3_scale_factor_width_0"), val = tensor<fp32, []>(0x1p+1)];
            tensor<bool, []> f4_3_align_corners_0 = const()[name = tensor<string, []>("f4_3_align_corners_0"), val = tensor<bool, []>(false)];
            tensor<fp16, [1, 32, 24, 24]> f4_3_cast_fp16 = upsample_bilinear(align_corners = f4_3_align_corners_0, scale_factor_height = f4_3_scale_factor_height_0, scale_factor_width = f4_3_scale_factor_width_0, x = input_291_cast_fp16)[name = tensor<string, []>("f4_3_cast_fp16")];
            tensor<string, []> f2_pad_type_0 = const()[name = tensor<string, []>("f2_pad_type_0"), val = tensor<string, []>("valid")];
            tensor<int32, [2]> f2_strides_0 = const()[name = tensor<string, []>("f2_strides_0"), val = tensor<int32, [2]>([1, 1])];
            tensor<int32, [4]> f2_pad_0 = const()[name = tensor<string, []>("f2_pad_0"), val = tensor<int32, [4]>([0, 0, 0, 0])];
            tensor<int32, [2]> f2_dilations_0 = const()[name = tensor<string, []>("f2_dilations_0"), val = tensor<int32, [2]>([1, 1])];
            tensor<int32, []> f2_groups_0 = const()[name = tensor<string, []>("f2_groups_0"), val = tensor<int32, []>(1)];
            tensor<fp16, [32, 32, 1, 1]> self_backbone_conv2_weight_to_fp16 = const()[name = tensor<string, []>("self_backbone_conv2_weight_to_fp16"), val = tensor<fp16, [32, 32, 1, 1]>(BLOBFILE(path = tensor<string, []>("@model_path/weights/weight.bin"), offset = tensor<uint64, []>(3754240)))];
            tensor<fp16, [32]> self_backbone_conv2_bias_to_fp16 = const()[name = tensor<string, []>("self_backbone_conv2_bias_to_fp16"), val = tensor<fp16, [32]>(BLOBFILE(path = tensor<string, []>("@model_path/weights/weight.bin"), offset = tensor<uint64, []>(3756352)))];
            tensor<fp16, [1, 32, 24, 24]> f2_cast_fp16 = conv(bias = self_backbone_conv2_bias_to_fp16, dilations = f2_dilations_0, groups = f2_groups_0, pad = f2_pad_0, pad_type = f2_pad_type_0, strides = f2_strides_0, weight = self_backbone_conv2_weight_to_fp16, x = input_95_cast_fp16)[name = tensor<string, []>("f2_cast_fp16")];
            tensor<fp16, [1, 32, 24, 24]> input_293_cast_fp16 = add(x = f4_3_cast_fp16, y = f2_cast_fp16)[name = tensor<string, []>("input_293_cast_fp16")];
            tensor<string, []> input_295_pad_type_0 = const()[name = tensor<string, []>("input_295_pad_type_0"), val = tensor<string, []>("custom")];
            tensor<int32, [4]> input_295_pad_0 = const()[name = tensor<string, []>("input_295_pad_0"), val = tensor<int32, [4]>([1, 1, 1, 1])];
            tensor<int32, []> input_295_groups_0 = const()[name = tensor<string, []>("input_295_groups_0"), val = tensor<int32, []>(32)];
            tensor<int32, [2]> input_295_strides_0 = const()[name = tensor<string, []>("input_295_strides_0"), val = tensor<int32, [2]>([1, 1])];
            tensor<int32, [2]> input_295_dilations_0 = const()[name = tensor<string, []>("input_295_dilations_0"), val = tensor<int32, [2]>([1, 1])];
            tensor<fp16, [32, 1, 3, 3]> self_backbone_upsample1_0_weight_to_fp16 = const()[name = tensor<string, []>("self_backbone_upsample1_0_weight_to_fp16"), val = tensor<fp16, [32, 1, 3, 3]>(BLOBFILE(path = tensor<string, []>("@model_path/weights/weight.bin"), offset = tensor<uint64, []>(3756480)))];
            tensor<fp16, [32]> self_backbone_upsample1_0_bias_to_fp16 = const()[name = tensor<string, []>("self_backbone_upsample1_0_bias_to_fp16"), val = tensor<fp16, [32]>(BLOBFILE(path = tensor<string, []>("@model_path/weights/weight.bin"), offset = tensor<uint64, []>(3757120)))];
            tensor<fp16, [1, 32, 24, 24]> input_295_cast_fp16 = conv(bias = self_backbone_upsample1_0_bias_to_fp16, dilations = input_295_dilations_0, groups = input_295_groups_0, pad = input_295_pad_0, pad_type = input_295_pad_type_0, strides = input_295_strides_0, weight = self_backbone_upsample1_0_weight_to_fp16, x = input_293_cast_fp16)[name = tensor<string, []>("input_295_cast_fp16")];
            tensor<fp16, [1, 32, 24, 24]> input_297_cast_fp16 = relu(x = input_295_cast_fp16)[name = tensor<string, []>("input_297_cast_fp16")];
            tensor<string, []> input_299_pad_type_0 = const()[name = tensor<string, []>("input_299_pad_type_0"), val = tensor<string, []>("valid")];
            tensor<int32, [2]> input_299_strides_0 = const()[name = tensor<string, []>("input_299_strides_0"), val = tensor<int32, [2]>([1, 1])];
            tensor<int32, [4]> input_299_pad_0 = const()[name = tensor<string, []>("input_299_pad_0"), val = tensor<int32, [4]>([0, 0, 0, 0])];
            tensor<int32, [2]> input_299_dilations_0 = const()[name = tensor<string, []>("input_299_dilations_0"), val = tensor<int32, [2]>([1, 1])];
            tensor<int32, []> input_299_groups_0 = const()[name = tensor<string, []>("input_299_groups_0"), val = tensor<int32, []>(1)];
            tensor<fp16, [24, 32, 1, 1]> self_backbone_upsample1_2_0_weight_fused_bn_to_fp16 = const()[name = tensor<string, []>("self_backbone_upsample1_2_0_weight_fused_bn_to_fp16"), val = tensor<fp16, [24, 32, 1, 1]>(BLOBFILE(path = tensor<string, []>("@model_path/weights/weight.bin"), offset = tensor<uint64, []>(3757248)))];
            tensor<fp16, [24]> var_21_fused_bn_95_to_fp16 = const()[name = tensor<string, []>("op_21_fused_bn_95_to_fp16"), val = tensor<fp16, [24]>(BLOBFILE(path = tensor<string, []>("@model_path/weights/weight.bin"), offset = tensor<uint64, []>(3758848)))];
            tensor<fp16, [1, 24, 24, 24]> input_299_cast_fp16 = conv(bias = var_21_fused_bn_95_to_fp16, dilations = input_299_dilations_0, groups = input_299_groups_0, pad = input_299_pad_0, pad_type = input_299_pad_type_0, strides = input_299_strides_0, weight = self_backbone_upsample1_2_0_weight_fused_bn_to_fp16, x = input_297_cast_fp16)[name = tensor<string, []>("input_299_cast_fp16")];
            tensor<fp16, [1, 24, 24, 24]> input_303_cast_fp16 = relu(x = input_299_cast_fp16)[name = tensor<string, []>("input_303_cast_fp16")];
            tensor<fp32, []> f4_scale_factor_height_0 = const()[name = tensor<string, []>("f4_scale_factor_height_0"), val = tensor<fp32, []>(0x1p+1)];
            tensor<fp32, []> f4_scale_factor_width_0 = const()[name = tensor<string, []>("f4_scale_factor_width_0"), val = tensor<fp32, []>(0x1p+1)];
            tensor<bool, []> f4_align_corners_0 = const()[name = tensor<string, []>("f4_align_corners_0"), val = tensor<bool, []>(false)];
            tensor<fp16, [1, 24, 48, 48]> f4_cast_fp16 = upsample_bilinear(align_corners = f4_align_corners_0, scale_factor_height = f4_scale_factor_height_0, scale_factor_width = f4_scale_factor_width_0, x = input_303_cast_fp16)[name = tensor<string, []>("f4_cast_fp16")];
            tensor<string, []> f1_pad_type_0 = const()[name = tensor<string, []>("f1_pad_type_0"), val = tensor<string, []>("valid")];
            tensor<int32, [2]> f1_strides_0 = const()[name = tensor<string, []>("f1_strides_0"), val = tensor<int32, [2]>([1, 1])];
            tensor<int32, [4]> f1_pad_0 = const()[name = tensor<string, []>("f1_pad_0"), val = tensor<int32, [4]>([0, 0, 0, 0])];
            tensor<int32, [2]> f1_dilations_0 = const()[name = tensor<string, []>("f1_dilations_0"), val = tensor<int32, [2]>([1, 1])];
            tensor<int32, []> f1_groups_0 = const()[name = tensor<string, []>("f1_groups_0"), val = tensor<int32, []>(1)];
            tensor<fp16, [24, 24, 1, 1]> self_backbone_conv1_weight_to_fp16 = const()[name = tensor<string, []>("self_backbone_conv1_weight_to_fp16"), val = tensor<fp16, [24, 24, 1, 1]>(BLOBFILE(path = tensor<string, []>("@model_path/weights/weight.bin"), offset = tensor<uint64, []>(3758976)))];
            tensor<fp16, [24]> self_backbone_conv1_bias_to_fp16 = const()[name = tensor<string, []>("self_backbone_conv1_bias_to_fp16"), val = tensor<fp16, [24]>(BLOBFILE(path = tensor<string, []>("@model_path/weights/weight.bin"), offset = tensor<uint64, []>(3760192)))];
            tensor<fp16, [1, 24, 48, 48]> f1_cast_fp16 = conv(bias = self_backbone_conv1_bias_to_fp16, dilations = f1_dilations_0, groups = f1_groups_0, pad = f1_pad_0, pad_type = f1_pad_type_0, strides = f1_strides_0, weight = self_backbone_conv1_weight_to_fp16, x = input_47_cast_fp16)[name = tensor<string, []>("f1_cast_fp16")];
            tensor<fp16, [1, 24, 48, 48]> input_305_cast_fp16 = add(x = f4_cast_fp16, y = f1_cast_fp16)[name = tensor<string, []>("input_305_cast_fp16")];
            tensor<string, []> input_307_pad_type_0 = const()[name = tensor<string, []>("input_307_pad_type_0"), val = tensor<string, []>("custom")];
            tensor<int32, [4]> input_307_pad_0 = const()[name = tensor<string, []>("input_307_pad_0"), val = tensor<int32, [4]>([1, 1, 1, 1])];
            tensor<int32, []> input_307_groups_0 = const()[name = tensor<string, []>("input_307_groups_0"), val = tensor<int32, []>(24)];
            tensor<int32, [2]> input_307_strides_0 = const()[name = tensor<string, []>("input_307_strides_0"), val = tensor<int32, [2]>([1, 1])];
            tensor<int32, [2]> input_307_dilations_0 = const()[name = tensor<string, []>("input_307_dilations_0"), val = tensor<int32, [2]>([1, 1])];
            tensor<fp16, [24, 1, 3, 3]> self_backbone_conv4_0_weight_fused_bn_to_fp16 = const()[name = tensor<string, []>("self_backbone_conv4_0_weight_fused_bn_to_fp16"), val = tensor<fp16, [24, 1, 3, 3]>(BLOBFILE(path = tensor<string, []>("@model_path/weights/weight.bin"), offset = tensor<uint64, []>(3760320)))];
            tensor<fp16, [24]> var_21_fused_bn_97_to_fp16 = const()[name = tensor<string, []>("op_21_fused_bn_97_to_fp16"), val = tensor<fp16, [24]>(BLOBFILE(path = tensor<string, []>("@model_path/weights/weight.bin"), offset = tensor<uint64, []>(3760832)))];
            tensor<fp16, [1, 24, 48, 48]> input_307_cast_fp16 = conv(bias = var_21_fused_bn_97_to_fp16, dilations = input_307_dilations_0, groups = input_307_groups_0, pad = input_307_pad_0, pad_type = input_307_pad_type_0, strides = input_307_strides_0, weight = self_backbone_conv4_0_weight_fused_bn_to_fp16, x = input_305_cast_fp16)[name = tensor<string, []>("input_307_cast_fp16")];
            tensor<string, []> input_311_pad_type_0 = const()[name = tensor<string, []>("input_311_pad_type_0"), val = tensor<string, []>("valid")];
            tensor<int32, [2]> input_311_strides_0 = const()[name = tensor<string, []>("input_311_strides_0"), val = tensor<int32, [2]>([1, 1])];
            tensor<int32, [4]> input_311_pad_0 = const()[name = tensor<string, []>("input_311_pad_0"), val = tensor<int32, [4]>([0, 0, 0, 0])];
            tensor<int32, [2]> input_311_dilations_0 = const()[name = tensor<string, []>("input_311_dilations_0"), val = tensor<int32, [2]>([1, 1])];
            tensor<int32, []> input_311_groups_0 = const()[name = tensor<string, []>("input_311_groups_0"), val = tensor<int32, []>(1)];
            tensor<fp16, [24, 24, 1, 1]> self_backbone_conv4_2_weight_fused_bn_to_fp16 = const()[name = tensor<string, []>("self_backbone_conv4_2_weight_fused_bn_to_fp16"), val = tensor<fp16, [24, 24, 1, 1]>(BLOBFILE(path = tensor<string, []>("@model_path/weights/weight.bin"), offset = tensor<uint64, []>(3760960)))];
            tensor<fp16, [24]> var_21_fused_bn_99_to_fp16 = const()[name = tensor<string, []>("op_21_fused_bn_99_to_fp16"), val = tensor<fp16, [24]>(BLOBFILE(path = tensor<string, []>("@model_path/weights/weight.bin"), offset = tensor<uint64, []>(3762176)))];
            tensor<fp16, [1, 24, 48, 48]> input_311_cast_fp16 = conv(bias = var_21_fused_bn_99_to_fp16, dilations = input_311_dilations_0, groups = input_311_groups_0, pad = input_311_pad_0, pad_type = input_311_pad_type_0, strides = input_311_strides_0, weight = self_backbone_conv4_2_weight_fused_bn_to_fp16, x = input_307_cast_fp16)[name = tensor<string, []>("input_311_cast_fp16")];
            tensor<fp16, [1, 24, 48, 48]> input_315_cast_fp16 = relu(x = input_311_cast_fp16)[name = tensor<string, []>("input_315_cast_fp16")];
            tensor<string, []> input_317_pad_type_0 = const()[name = tensor<string, []>("input_317_pad_type_0"), val = tensor<string, []>("custom")];
            tensor<int32, [4]> input_317_pad_0 = const()[name = tensor<string, []>("input_317_pad_0"), val = tensor<int32, [4]>([1, 1, 1, 1])];
            tensor<int32, []> input_317_groups_0 = const()[name = tensor<string, []>("input_317_groups_0"), val = tensor<int32, []>(24)];
            tensor<int32, [2]> input_317_strides_0 = const()[name = tensor<string, []>("input_317_strides_0"), val = tensor<int32, [2]>([1, 1])];
            tensor<int32, [2]> input_317_dilations_0 = const()[name = tensor<string, []>("input_317_dilations_0"), val = tensor<int32, [2]>([1, 1])];
            tensor<fp16, [24, 1, 3, 3]> self_header_header_heatmaps_0_0_weight_fused_bn_to_fp16 = const()[name = tensor<string, []>("self_header_header_heatmaps_0_0_weight_fused_bn_to_fp16"), val = tensor<fp16, [24, 1, 3, 3]>(BLOBFILE(path = tensor<string, []>("@model_path/weights/weight.bin"), offset = tensor<uint64, []>(3762304)))];
            tensor<fp16, [24]> var_21_fused_bn_101_to_fp16 = const()[name = tensor<string, []>("op_21_fused_bn_101_to_fp16"), val = tensor<fp16, [24]>(BLOBFILE(path = tensor<string, []>("@model_path/weights/weight.bin"), offset = tensor<uint64, []>(3762816)))];
            tensor<fp16, [1, 24, 48, 48]> input_317_cast_fp16 = conv(bias = var_21_fused_bn_101_to_fp16, dilations = input_317_dilations_0, groups = input_317_groups_0, pad = input_317_pad_0, pad_type = input_317_pad_type_0, strides = input_317_strides_0, weight = self_header_header_heatmaps_0_0_weight_fused_bn_to_fp16, x = input_315_cast_fp16)[name = tensor<string, []>("input_317_cast_fp16")];
            tensor<string, []> input_321_pad_type_0 = const()[name = tensor<string, []>("input_321_pad_type_0"), val = tensor<string, []>("valid")];
            tensor<int32, [2]> input_321_strides_0 = const()[name = tensor<string, []>("input_321_strides_0"), val = tensor<int32, [2]>([1, 1])];
            tensor<int32, [4]> input_321_pad_0 = const()[name = tensor<string, []>("input_321_pad_0"), val = tensor<int32, [4]>([0, 0, 0, 0])];
            tensor<int32, [2]> input_321_dilations_0 = const()[name = tensor<string, []>("input_321_dilations_0"), val = tensor<int32, [2]>([1, 1])];
            tensor<int32, []> input_321_groups_0 = const()[name = tensor<string, []>("input_321_groups_0"), val = tensor<int32, []>(1)];
            tensor<fp16, [96, 24, 1, 1]> self_header_header_heatmaps_0_2_weight_fused_bn_to_fp16 = const()[name = tensor<string, []>("self_header_header_heatmaps_0_2_weight_fused_bn_to_fp16"), val = tensor<fp16, [96, 24, 1, 1]>(BLOBFILE(path = tensor<string, []>("@model_path/weights/weight.bin"), offset = tensor<uint64, []>(3762944)))];
            tensor<fp16, [96]> var_21_fused_bn_103_to_fp16 = const()[name = tensor<string, []>("op_21_fused_bn_103_to_fp16"), val = tensor<fp16, [96]>(BLOBFILE(path = tensor<string, []>("@model_path/weights/weight.bin"), offset = tensor<uint64, []>(3767616)))];
            tensor<fp16, [1, 96, 48, 48]> input_321_cast_fp16 = conv(bias = var_21_fused_bn_103_to_fp16, dilations = input_321_dilations_0, groups = input_321_groups_0, pad = input_321_pad_0, pad_type = input_321_pad_type_0, strides = input_321_strides_0, weight = self_header_header_heatmaps_0_2_weight_fused_bn_to_fp16, x = input_317_cast_fp16)[name = tensor<string, []>("input_321_cast_fp16")];
            tensor<fp16, [1, 96, 48, 48]> input_325_cast_fp16 = relu(x = input_321_cast_fp16)[name = tensor<string, []>("input_325_cast_fp16")];
            tensor<string, []> input_327_pad_type_0 = const()[name = tensor<string, []>("input_327_pad_type_0"), val = tensor<string, []>("valid")];
            tensor<int32, [2]> input_327_strides_0 = const()[name = tensor<string, []>("input_327_strides_0"), val = tensor<int32, [2]>([1, 1])];
            tensor<int32, [4]> input_327_pad_0 = const()[name = tensor<string, []>("input_327_pad_0"), val = tensor<int32, [4]>([0, 0, 0, 0])];
            tensor<int32, [2]> input_327_dilations_0 = const()[name = tensor<string, []>("input_327_dilations_0"), val = tensor<int32, [2]>([1, 1])];
            tensor<int32, []> input_327_groups_0 = const()[name = tensor<string, []>("input_327_groups_0"), val = tensor<int32, []>(1)];
            tensor<fp16, [17, 96, 1, 1]> self_header_header_heatmaps_1_weight_to_fp16 = const()[name = tensor<string, []>("self_header_header_heatmaps_1_weight_to_fp16"), val = tensor<fp16, [17, 96, 1, 1]>(BLOBFILE(path = tensor<string, []>("@model_path/weights/weight.bin"), offset = tensor<uint64, []>(3767872)))];
            tensor<fp16, [17]> self_header_header_heatmaps_1_bias_to_fp16 = const()[name = tensor<string, []>("self_header_header_heatmaps_1_bias_to_fp16"), val = tensor<fp16, [17]>(BLOBFILE(path = tensor<string, []>("@model_path/weights/weight.bin"), offset = tensor<uint64, []>(3771200)))];
            tensor<fp16, [1, 17, 48, 48]> input_327_cast_fp16 = conv(bias = self_header_header_heatmaps_1_bias_to_fp16, dilations = input_327_dilations_0, groups = input_327_groups_0, pad = input_327_pad_0, pad_type = input_327_pad_type_0, strides = input_327_strides_0, weight = self_header_header_heatmaps_1_weight_to_fp16, x = input_325_cast_fp16)[name = tensor<string, []>("input_327_cast_fp16")];
            tensor<fp16, [1, 17, 48, 48]> var_276_cast_fp16 = sigmoid(x = input_327_cast_fp16)[name = tensor<string, []>("op_276_cast_fp16")];
            tensor<string, []> var_276_cast_fp16_to_fp32_dtype_0 = const()[name = tensor<string, []>("op_276_cast_fp16_to_fp32_dtype_0"), val = tensor<string, []>("fp32")];
            tensor<string, []> input_329_pad_type_0 = const()[name = tensor<string, []>("input_329_pad_type_0"), val = tensor<string, []>("custom")];
            tensor<int32, [4]> input_329_pad_0 = const()[name = tensor<string, []>("input_329_pad_0"), val = tensor<int32, [4]>([1, 1, 1, 1])];
            tensor<int32, []> input_329_groups_0 = const()[name = tensor<string, []>("input_329_groups_0"), val = tensor<int32, []>(24)];
            tensor<int32, [2]> input_329_strides_0 = const()[name = tensor<string, []>("input_329_strides_0"), val = tensor<int32, [2]>([1, 1])];
            tensor<int32, [2]> input_329_dilations_0 = const()[name = tensor<string, []>("input_329_dilations_0"), val = tensor<int32, [2]>([1, 1])];
            tensor<fp16, [24, 1, 3, 3]> self_header_header_centers_0_0_weight_fused_bn_to_fp16 = const()[name = tensor<string, []>("self_header_header_centers_0_0_weight_fused_bn_to_fp16"), val = tensor<fp16, [24, 1, 3, 3]>(BLOBFILE(path = tensor<string, []>("@model_path/weights/weight.bin"), offset = tensor<uint64, []>(3771328)))];
            tensor<fp16, [24]> var_21_fused_bn_105_to_fp16 = const()[name = tensor<string, []>("op_21_fused_bn_105_to_fp16"), val = tensor<fp16, [24]>(BLOBFILE(path = tensor<string, []>("@model_path/weights/weight.bin"), offset = tensor<uint64, []>(3771840)))];
            tensor<fp16, [1, 24, 48, 48]> input_329_cast_fp16 = conv(bias = var_21_fused_bn_105_to_fp16, dilations = input_329_dilations_0, groups = input_329_groups_0, pad = input_329_pad_0, pad_type = input_329_pad_type_0, strides = input_329_strides_0, weight = self_header_header_centers_0_0_weight_fused_bn_to_fp16, x = input_315_cast_fp16)[name = tensor<string, []>("input_329_cast_fp16")];
            tensor<string, []> input_333_pad_type_0 = const()[name = tensor<string, []>("input_333_pad_type_0"), val = tensor<string, []>("valid")];
            tensor<int32, [2]> input_333_strides_0 = const()[name = tensor<string, []>("input_333_strides_0"), val = tensor<int32, [2]>([1, 1])];
            tensor<int32, [4]> input_333_pad_0 = const()[name = tensor<string, []>("input_333_pad_0"), val = tensor<int32, [4]>([0, 0, 0, 0])];
            tensor<int32, [2]> input_333_dilations_0 = const()[name = tensor<string, []>("input_333_dilations_0"), val = tensor<int32, [2]>([1, 1])];
            tensor<int32, []> input_333_groups_0 = const()[name = tensor<string, []>("input_333_groups_0"), val = tensor<int32, []>(1)];
            tensor<fp16, [96, 24, 1, 1]> self_header_header_centers_0_2_weight_fused_bn_to_fp16 = const()[name = tensor<string, []>("self_header_header_centers_0_2_weight_fused_bn_to_fp16"), val = tensor<fp16, [96, 24, 1, 1]>(BLOBFILE(path = tensor<string, []>("@model_path/weights/weight.bin"), offset = tensor<uint64, []>(3771968)))];
            tensor<fp16, [96]> var_21_fused_bn_107_to_fp16 = const()[name = tensor<string, []>("op_21_fused_bn_107_to_fp16"), val = tensor<fp16, [96]>(BLOBFILE(path = tensor<string, []>("@model_path/weights/weight.bin"), offset = tensor<uint64, []>(3776640)))];
            tensor<fp16, [1, 96, 48, 48]> input_333_cast_fp16 = conv(bias = var_21_fused_bn_107_to_fp16, dilations = input_333_dilations_0, groups = input_333_groups_0, pad = input_333_pad_0, pad_type = input_333_pad_type_0, strides = input_333_strides_0, weight = self_header_header_centers_0_2_weight_fused_bn_to_fp16, x = input_329_cast_fp16)[name = tensor<string, []>("input_333_cast_fp16")];
            tensor<fp16, [1, 96, 48, 48]> input_337_cast_fp16 = relu(x = input_333_cast_fp16)[name = tensor<string, []>("input_337_cast_fp16")];
            tensor<string, []> input_339_pad_type_0 = const()[name = tensor<string, []>("input_339_pad_type_0"), val = tensor<string, []>("valid")];
            tensor<int32, [2]> input_339_strides_0 = const()[name = tensor<string, []>("input_339_strides_0"), val = tensor<int32, [2]>([1, 1])];
            tensor<int32, [4]> input_339_pad_0 = const()[name = tensor<string, []>("input_339_pad_0"), val = tensor<int32, [4]>([0, 0, 0, 0])];
            tensor<int32, [2]> input_339_dilations_0 = const()[name = tensor<string, []>("input_339_dilations_0"), val = tensor<int32, [2]>([1, 1])];
            tensor<int32, []> input_339_groups_0 = const()[name = tensor<string, []>("input_339_groups_0"), val = tensor<int32, []>(1)];
            tensor<fp16, [1, 96, 1, 1]> self_header_header_centers_1_weight_to_fp16 = const()[name = tensor<string, []>("self_header_header_centers_1_weight_to_fp16"), val = tensor<fp16, [1, 96, 1, 1]>(BLOBFILE(path = tensor<string, []>("@model_path/weights/weight.bin"), offset = tensor<uint64, []>(3776896)))];
            tensor<fp16, [1]> self_header_header_centers_1_bias_to_fp16 = const()[name = tensor<string, []>("self_header_header_centers_1_bias_to_fp16"), val = tensor<fp16, [1]>([-0x1.2ecp-2])];
            tensor<fp16, [1, 1, 48, 48]> input_339_cast_fp16 = conv(bias = self_header_header_centers_1_bias_to_fp16, dilations = input_339_dilations_0, groups = input_339_groups_0, pad = input_339_pad_0, pad_type = input_339_pad_type_0, strides = input_339_strides_0, weight = self_header_header_centers_1_weight_to_fp16, x = input_337_cast_fp16)[name = tensor<string, []>("input_339_cast_fp16")];
            tensor<fp16, [1, 1, 48, 48]> var_285_cast_fp16 = sigmoid(x = input_339_cast_fp16)[name = tensor<string, []>("op_285_cast_fp16")];
            tensor<string, []> var_285_cast_fp16_to_fp32_dtype_0 = const()[name = tensor<string, []>("op_285_cast_fp16_to_fp32_dtype_0"), val = tensor<string, []>("fp32")];
            tensor<string, []> input_341_pad_type_0 = const()[name = tensor<string, []>("input_341_pad_type_0"), val = tensor<string, []>("custom")];
            tensor<int32, [4]> input_341_pad_0 = const()[name = tensor<string, []>("input_341_pad_0"), val = tensor<int32, [4]>([1, 1, 1, 1])];
            tensor<int32, []> input_341_groups_0 = const()[name = tensor<string, []>("input_341_groups_0"), val = tensor<int32, []>(24)];
            tensor<int32, [2]> input_341_strides_0 = const()[name = tensor<string, []>("input_341_strides_0"), val = tensor<int32, [2]>([1, 1])];
            tensor<int32, [2]> input_341_dilations_0 = const()[name = tensor<string, []>("input_341_dilations_0"), val = tensor<int32, [2]>([1, 1])];
            tensor<fp16, [24, 1, 3, 3]> self_header_header_regs_0_0_weight_fused_bn_to_fp16 = const()[name = tensor<string, []>("self_header_header_regs_0_0_weight_fused_bn_to_fp16"), val = tensor<fp16, [24, 1, 3, 3]>(BLOBFILE(path = tensor<string, []>("@model_path/weights/weight.bin"), offset = tensor<uint64, []>(3777152)))];
            tensor<fp16, [24]> var_21_fused_bn_109_to_fp16 = const()[name = tensor<string, []>("op_21_fused_bn_109_to_fp16"), val = tensor<fp16, [24]>(BLOBFILE(path = tensor<string, []>("@model_path/weights/weight.bin"), offset = tensor<uint64, []>(3777664)))];
            tensor<fp16, [1, 24, 48, 48]> input_341_cast_fp16 = conv(bias = var_21_fused_bn_109_to_fp16, dilations = input_341_dilations_0, groups = input_341_groups_0, pad = input_341_pad_0, pad_type = input_341_pad_type_0, strides = input_341_strides_0, weight = self_header_header_regs_0_0_weight_fused_bn_to_fp16, x = input_315_cast_fp16)[name = tensor<string, []>("input_341_cast_fp16")];
            tensor<string, []> input_345_pad_type_0 = const()[name = tensor<string, []>("input_345_pad_type_0"), val = tensor<string, []>("valid")];
            tensor<int32, [2]> input_345_strides_0 = const()[name = tensor<string, []>("input_345_strides_0"), val = tensor<int32, [2]>([1, 1])];
            tensor<int32, [4]> input_345_pad_0 = const()[name = tensor<string, []>("input_345_pad_0"), val = tensor<int32, [4]>([0, 0, 0, 0])];
            tensor<int32, [2]> input_345_dilations_0 = const()[name = tensor<string, []>("input_345_dilations_0"), val = tensor<int32, [2]>([1, 1])];
            tensor<int32, []> input_345_groups_0 = const()[name = tensor<string, []>("input_345_groups_0"), val = tensor<int32, []>(1)];
            tensor<fp16, [96, 24, 1, 1]> self_header_header_regs_0_2_weight_fused_bn_to_fp16 = const()[name = tensor<string, []>("self_header_header_regs_0_2_weight_fused_bn_to_fp16"), val = tensor<fp16, [96, 24, 1, 1]>(BLOBFILE(path = tensor<string, []>("@model_path/weights/weight.bin"), offset = tensor<uint64, []>(3777792)))];
            tensor<fp16, [96]> var_21_fused_bn_111_to_fp16 = const()[name = tensor<string, []>("op_21_fused_bn_111_to_fp16"), val = tensor<fp16, [96]>(BLOBFILE(path = tensor<string, []>("@model_path/weights/weight.bin"), offset = tensor<uint64, []>(3782464)))];
            tensor<fp16, [1, 96, 48, 48]> input_345_cast_fp16 = conv(bias = var_21_fused_bn_111_to_fp16, dilations = input_345_dilations_0, groups = input_345_groups_0, pad = input_345_pad_0, pad_type = input_345_pad_type_0, strides = input_345_strides_0, weight = self_header_header_regs_0_2_weight_fused_bn_to_fp16, x = input_341_cast_fp16)[name = tensor<string, []>("input_345_cast_fp16")];
            tensor<fp16, [1, 96, 48, 48]> input_349_cast_fp16 = relu(x = input_345_cast_fp16)[name = tensor<string, []>("input_349_cast_fp16")];
            tensor<string, []> var_293_pad_type_0 = const()[name = tensor<string, []>("op_293_pad_type_0"), val = tensor<string, []>("valid")];
            tensor<int32, [2]> var_293_strides_0 = const()[name = tensor<string, []>("op_293_strides_0"), val = tensor<int32, [2]>([1, 1])];
            tensor<int32, [4]> var_293_pad_0 = const()[name = tensor<string, []>("op_293_pad_0"), val = tensor<int32, [4]>([0, 0, 0, 0])];
            tensor<int32, [2]> var_293_dilations_0 = const()[name = tensor<string, []>("op_293_dilations_0"), val = tensor<int32, [2]>([1, 1])];
            tensor<int32, []> var_293_groups_0 = const()[name = tensor<string, []>("op_293_groups_0"), val = tensor<int32, []>(1)];
            tensor<fp16, [34, 96, 1, 1]> self_header_header_regs_1_weight_to_fp16 = const()[name = tensor<string, []>("self_header_header_regs_1_weight_to_fp16"), val = tensor<fp16, [34, 96, 1, 1]>(BLOBFILE(path = tensor<string, []>("@model_path/weights/weight.bin"), offset = tensor<uint64, []>(3782720)))];
            tensor<fp16, [34]> self_header_header_regs_1_bias_to_fp16 = const()[name = tensor<string, []>("self_header_header_regs_1_bias_to_fp16"), val = tensor<fp16, [34]>(BLOBFILE(path = tensor<string, []>("@model_path/weights/weight.bin"), offset = tensor<uint64, []>(3789312)))];
            tensor<fp16, [1, 34, 48, 48]> var_293_cast_fp16 = conv(bias = self_header_header_regs_1_bias_to_fp16, dilations = var_293_dilations_0, groups = var_293_groups_0, pad = var_293_pad_0, pad_type = var_293_pad_type_0, strides = var_293_strides_0, weight = self_header_header_regs_1_weight_to_fp16, x = input_349_cast_fp16)[name = tensor<string, []>("op_293_cast_fp16")];
            tensor<string, []> var_293_cast_fp16_to_fp32_dtype_0 = const()[name = tensor<string, []>("op_293_cast_fp16_to_fp32_dtype_0"), val = tensor<string, []>("fp32")];
            tensor<string, []> input_351_pad_type_0 = const()[name = tensor<string, []>("input_351_pad_type_0"), val = tensor<string, []>("custom")];
            tensor<int32, [4]> input_351_pad_0 = const()[name = tensor<string, []>("input_351_pad_0"), val = tensor<int32, [4]>([1, 1, 1, 1])];
            tensor<int32, []> input_351_groups_0 = const()[name = tensor<string, []>("input_351_groups_0"), val = tensor<int32, []>(24)];
            tensor<int32, [2]> input_351_strides_0 = const()[name = tensor<string, []>("input_351_strides_0"), val = tensor<int32, [2]>([1, 1])];
            tensor<int32, [2]> input_351_dilations_0 = const()[name = tensor<string, []>("input_351_dilations_0"), val = tensor<int32, [2]>([1, 1])];
            tensor<fp16, [24, 1, 3, 3]> self_header_header_offsets_0_0_weight_fused_bn_to_fp16 = const()[name = tensor<string, []>("self_header_header_offsets_0_0_weight_fused_bn_to_fp16"), val = tensor<fp16, [24, 1, 3, 3]>(BLOBFILE(path = tensor<string, []>("@model_path/weights/weight.bin"), offset = tensor<uint64, []>(3789504)))];
            tensor<fp16, [24]> var_21_fused_bn_113_to_fp16 = const()[name = tensor<string, []>("op_21_fused_bn_113_to_fp16"), val = tensor<fp16, [24]>(BLOBFILE(path = tensor<string, []>("@model_path/weights/weight.bin"), offset = tensor<uint64, []>(3790016)))];
            tensor<fp16, [1, 24, 48, 48]> input_351_cast_fp16 = conv(bias = var_21_fused_bn_113_to_fp16, dilations = input_351_dilations_0, groups = input_351_groups_0, pad = input_351_pad_0, pad_type = input_351_pad_type_0, strides = input_351_strides_0, weight = self_header_header_offsets_0_0_weight_fused_bn_to_fp16, x = input_315_cast_fp16)[name = tensor<string, []>("input_351_cast_fp16")];
            tensor<string, []> input_355_pad_type_0 = const()[name = tensor<string, []>("input_355_pad_type_0"), val = tensor<string, []>("valid")];
            tensor<int32, [2]> input_355_strides_0 = const()[name = tensor<string, []>("input_355_strides_0"), val = tensor<int32, [2]>([1, 1])];
            tensor<int32, [4]> input_355_pad_0 = const()[name = tensor<string, []>("input_355_pad_0"), val = tensor<int32, [4]>([0, 0, 0, 0])];
            tensor<int32, [2]> input_355_dilations_0 = const()[name = tensor<string, []>("input_355_dilations_0"), val = tensor<int32, [2]>([1, 1])];
            tensor<int32, []> input_355_groups_0 = const()[name = tensor<string, []>("input_355_groups_0"), val = tensor<int32, []>(1)];
            tensor<fp16, [96, 24, 1, 1]> self_header_header_offsets_0_2_weight_fused_bn_to_fp16 = const()[name = tensor<string, []>("self_header_header_offsets_0_2_weight_fused_bn_to_fp16"), val = tensor<fp16, [96, 24, 1, 1]>(BLOBFILE(path = tensor<string, []>("@model_path/weights/weight.bin"), offset = tensor<uint64, []>(3790144)))];
            tensor<fp16, [96]> var_21_fused_bn_to_fp16 = const()[name = tensor<string, []>("op_21_fused_bn_to_fp16"), val = tensor<fp16, [96]>(BLOBFILE(path = tensor<string, []>("@model_path/weights/weight.bin"), offset = tensor<uint64, []>(3794816)))];
            tensor<fp16, [1, 96, 48, 48]> input_355_cast_fp16 = conv(bias = var_21_fused_bn_to_fp16, dilations = input_355_dilations_0, groups = input_355_groups_0, pad = input_355_pad_0, pad_type = input_355_pad_type_0, strides = input_355_strides_0, weight = self_header_header_offsets_0_2_weight_fused_bn_to_fp16, x = input_351_cast_fp16)[name = tensor<string, []>("input_355_cast_fp16")];
            tensor<fp16, [1, 96, 48, 48]> input_cast_fp16 = relu(x = input_355_cast_fp16)[name = tensor<string, []>("input_cast_fp16")];
            tensor<string, []> var_301_pad_type_0 = const()[name = tensor<string, []>("op_301_pad_type_0"), val = tensor<string, []>("valid")];
            tensor<int32, [2]> var_301_strides_0 = const()[name = tensor<string, []>("op_301_strides_0"), val = tensor<int32, [2]>([1, 1])];
            tensor<int32, [4]> var_301_pad_0 = const()[name = tensor<string, []>("op_301_pad_0"), val = tensor<int32, [4]>([0, 0, 0, 0])];
            tensor<int32, [2]> var_301_dilations_0 = const()[name = tensor<string, []>("op_301_dilations_0"), val = tensor<int32, [2]>([1, 1])];
            tensor<int32, []> var_301_groups_0 = const()[name = tensor<string, []>("op_301_groups_0"), val = tensor<int32, []>(1)];
            tensor<fp16, [34, 96, 1, 1]> self_header_header_offsets_1_weight_to_fp16 = const()[name = tensor<string, []>("self_header_header_offsets_1_weight_to_fp16"), val = tensor<fp16, [34, 96, 1, 1]>(BLOBFILE(path = tensor<string, []>("@model_path/weights/weight.bin"), offset = tensor<uint64, []>(3795072)))];
            tensor<fp16, [34]> self_header_header_offsets_1_bias_to_fp16 = const()[name = tensor<string, []>("self_header_header_offsets_1_bias_to_fp16"), val = tensor<fp16, [34]>(BLOBFILE(path = tensor<string, []>("@model_path/weights/weight.bin"), offset = tensor<uint64, []>(3801664)))];
            tensor<fp16, [1, 34, 48, 48]> var_301_cast_fp16 = conv(bias = self_header_header_offsets_1_bias_to_fp16, dilations = var_301_dilations_0, groups = var_301_groups_0, pad = var_301_pad_0, pad_type = var_301_pad_type_0, strides = var_301_strides_0, weight = self_header_header_offsets_1_weight_to_fp16, x = input_cast_fp16)[name = tensor<string, []>("op_301_cast_fp16")];
            tensor<string, []> var_301_cast_fp16_to_fp32_dtype_0 = const()[name = tensor<string, []>("op_301_cast_fp16_to_fp32_dtype_0"), val = tensor<string, []>("fp32")];
            tensor<fp32, [1, 34, 48, 48]> offsets = cast(dtype = var_301_cast_fp16_to_fp32_dtype_0, x = var_301_cast_fp16)[name = tensor<string, []>("cast_0")];
            tensor<fp32, [1, 34, 48, 48]> regs = cast(dtype = var_293_cast_fp16_to_fp32_dtype_0, x = var_293_cast_fp16)[name = tensor<string, []>("cast_1")];
            tensor<fp32, [1, 1, 48, 48]> centers = cast(dtype = var_285_cast_fp16_to_fp32_dtype_0, x = var_285_cast_fp16)[name = tensor<string, []>("cast_2")];
            tensor<fp32, [1, 17, 48, 48]> heatmaps = cast(dtype = var_276_cast_fp16_to_fp32_dtype_0, x = var_276_cast_fp16)[name = tensor<string, []>("cast_3")];
        } -> (heatmaps, centers, regs, offsets);
}